models/best_normalized_model.pth (torch, 618993 bytes, 15 tensors)

temporal_block.weight_ih_l0 f4 [384, 7]
00000000: 8b49 90bc da2b c4bb d7b3 09bd 11b9 04bd
00000010: 2891 1cbc 8123 8eba e77d 603b 30d4 3db7
00000020: e060 7b3c 7fa0 d2bc b872 f9bc 3d42 19bc
00000030: efd0 1f3c 8aac 223c c879 0abc e1fc 4f3d
00000040: 4ed6 5ebd 31a4 f2bc e4a5 42bc 7b71 bb3c
00000050: 19c3 7a3c cf9b d43b d817 aaba 54a9 14bd
00000060: e3da 95bd c8e1 1fbc e664 7a3c 92a0 833c
00000070: fdef 0cbc 460f c13b 8b1f 5abd fc78 dabd
00000080: 1eb3 b43c e672 0b3c 6014 953c f62a 713d
00000090: 41bb ec3c 63ee 26be 980c a1bd 0f6a d6bc
000000a0: 69aa 893d 09d2 9e3d 51bf afbb d70d 8a3b
000000b0: f1cf 60bc e6af 7ebc a79d c039 2ba6 513b
000000c0: 3b2a 683b ecfc a4ba 66cf 0eba e922 bebd
000000d0: 7602 cebd d25e d7bb 2f28 19bc fe94 91bc
000000e0: 186d b2bb bbb6 6dbc 0238 9dbb 4886 08bd
000000f0: e365 aeba 3fa0 983c cf6f 5c39 29a8 c5bc
00000100: 6100 d4bc 2383 f6bc 55a9 c0bc 3973 98bc
00000110: c281 803b b628 8c3b 003c 66bc e221 1abc
00000120: d075 1cbd 6e8b 2bbe 4826 03bd 53f9 243c
00000130: e0ba 9f3c a334 4b3c 2536 563d 565b 84bd
00000140: a0dc fdbd 0227 283c 3e67 dd39 c5fe 483d
00000150: ac9b a33d 1ea9 853c 0033 12be dc2a b7bd
00000160: 7b69 043d 29d8 843c 234c 803d 7f33 3ebb
00000170: c0ae 1a3d e08d c3bb c3d4 7bbd 4b2f 35bc
00000180: 68f4 a43c bf6e 12bb 146a bebb feeb 5bbb
00000190: b74a 0dbd fc7c 82bd 5b19 98bc 1f6b 6c3c
000001a0: b67c 393c 1dc9 9dbb db3c d9bb a7c9 b83b
000001b0: 00ff 4bbd 3595 2abc 7216 0b3d cf20 d03c
000001c0: da0c a43c 7766 eb3c 0cde 08bc eda9 34bd
000001d0: a74b a739 edd2 3d3d 8e67 343d 4cce f63b
000001e0: cf77 fb3b 016d 13be 9aa7 afbd aa47 c83b
000001f0: c31e fdbc 250a f6bc 1dd3 c3ba d41f cb3c
00000200: 058e 78bd e83a 9dbd d848 8ebc 1034 403c
00000210: 9c9f a53b 060d e03a 77d9 a63c 64d7 2dbd
00000220: b744 d3bd 8ef9 ff3c 622e debc 885f 01bc
00000230: b234 c4bb 0b33 9b3c fcee e0bd 7ac8 cbbd
00000240: 4011 a0bb a9e8 9e3d c499 8c3c d833 a33c
00000250: dfb2 f93c 2d9a 8dbd c879 8abd 5097 56bc
00000260: 592a 853d 14da 563c c9f2 b9bb 0ab6 9d3a
00000270: 7deb 7abc e6e8 48bd 3a79 8ebb 6e17 653b
00000280: 50e4 573b 3674 503c a089 03bd efd8 1cbe
00000290: 5f47 25bd ae0e 5a3c 9735 023d 18e3 083d
000002a0: c86f 96b9 db55 c93a 5ad3 ecbc 0c96 fbbb
000002b0: f670 57bb 0f95 813c aa65 813c 756c 903c
000002c0: 45a2 a23c 1413 27bd 15ee aebd edd8 1c3c
000002d0: 8c9f 433d cdcf 923c aac1 c2bc 68a2 b2bb
000002e0: 47bf dcbd 868a 8dbc d3cb e9bc 559c 063c
000002f0: 1ecd aaba 8b79 213e 4433 173d 0a6b ea3d
00000300: 8792 1abe 04f4 bfbd e30c b7bc 38e4 513d
00000310: 1b79 b8ba 0109 c03b b16e 94bc 5288 e1bc
00000320: 1998 e3bb f04d 1d3c 370f 203c 36da bc3a
00000330: ccd5 75bb fc9b 693b ecd6 243c d13a e839
00000340: 7434 cd3a f992 7e3b 4ae3 963b 7053 053d
00000350: ee61 f8bc 15a4 d6bd 4e50 86bc dc5b 393c
00000360: 1d34 563c b590 253c 0e3b ea3b 095b 6ebd
00000370: 44da 84bd ebca 25bc 2828 7d3c 08ed 8e3c
00000380: 85c6 89bc e704 77bc 4932 03bc 70b3 0f3b
00000390: f606 d739 0d7d debb 7cde 193b 4c72 4fbb
000003a0: ae13 9a3c 15e7 a2bd 8c5a d0bd b10d a4bb
000003b0: 72ef 4c3d f0a1 0d3d 8efd 6d3b 3dee 1f3c
000003c0: 7484 cdbc b4fd 45bc 1f13 22bc da9c ae3c
000003d0: 2c96 883c 8c2c 1ebc b3c6 0f3b 3c93 66bd
000003e0: 3516 12be 0f5b ebbc e0ff 4dbb 7543 6a3c
000003f0: aeb1 3abb 5728 80bc 08d9 783c d346 65bc
-0.017613193 -0.005986673 -0.033618774 -0.032403056 -0.009556092 -0.0010844321 0.003425473 -1.1314682e-05
0.015342921 -0.025711296 -0.03045021 -0.009354171 0.0097544035 0.009928832 -0.0084518865 0.050778273
-0.054403596 -0.029619308 -0.011880372 0.02288126 0.015305304 0.0064883004 -0.0012977077 -0.036294296
-0.0731714 -0.00975842 0.015282845 0.016067777 -0.00860214 0.0058917133 -0.053252738 -0.10667607
0.022058066 0.008511281 0.018198192 0.05887886 0.028897883 -0.16301875 -0.0786373 -0.02617362
0.06721956 0.07754905 -0.005363383 0.0042130756 -0.013721452 -0.015544867 0.00036738554 0.0031989913
0.0035425562 -0.0012587584 -0.0005447775 -0.09284002 -0.10059063 -0.0065725828 -0.009347959 -0.01777124
-0.005445134 -0.014508898 -0.0047979364 -0.033331186 -0.0013305511 0.018631099 0.00021022487 -0.024128037
-0.025879087 -0.030091828 -0.023518244 -0.01860963 0.0039217183 0.004277314 -0.014052391 -0.009407492
-0.038198292 -0.16752407 -0.03201893 0.010069209 0.019498289 0.012402686 0.05229773 -0.064627334
-0.123955965 0.010263206 0.00042229326 0.049071092 0.079886764 0.016315993 -0.14277267 -0.08943722
0.032327157 0.016216354 0.06264522 -0.0029022393 0.03776431 -0.0059678406 -0.061482202 -0.011058639
0.020136073 -0.0022343842 -0.0058109853 -0.003355741 -0.03449508 -0.06371495 -0.018566778 0.0144298365
0.011321237 -0.0048152343 -0.006629569 0.005639273 -0.049803734 -0.01041155 0.033956952 0.02540627
0.02002566 0.028735382 -0.008353721 -0.044107366 0.00031909088 0.046343733 0.04404407 0.0075319167
0.0076741944 -0.1439705 -0.08576889 0.0061120586 -0.030898457 -0.030034134 -0.0014940236 0.02479545
-0.060682315 -0.07677251 -0.017368719 0.011731163 0.0050544273 0.0017093725 0.020367367 -0.04244174
-0.10315841 0.031246927 -0.027121726 -0.007896312 -0.005987727 0.018945238 -0.10983083 -0.09950347
-0.004884869 0.0775922 0.017163165 0.019922182 0.0304808 -0.06914172 -0.06761509 -0.013097599
0.06502218 0.013113517 -0.005674694 0.0012032401 -0.015314934 -0.049050234 -0.0043479474 0.0034956592
0.0032942481 0.012723019 -0.03211367 -0.15317129 -0.040351268 0.013309164 0.03178939 0.0334197
-0.00028693513 0.001536067 -0.028909374 -0.007677799 -0.0032873726 0.015818147 0.015795548 0.017629841
0.019852767 -0.04078968 -0.08541504 0.0095732035 0.047759578 0.017921353 -0.023773987 -0.0054514892
-0.10778671 -0.017277967 -0.028539574 0.008215983 -0.00130311 0.15769021 0.036914125 0.11446197
-0.15094958 -0.09372714 -0.022345012 0.051243037 -0.0014074178 0.0058604483 -0.018119188 -0.027530823
-0.0069456217 0.009601101 0.0097692525 0.0014408294 -0.0037511466 0.0035645952 0.010061007 0.0004429431
0.0015655891 0.0038844927 0.0046047317 0.032550275 -0.030320134 -0.10480515 -0.016395714 0.011313405
0.013073948 0.010105302 0.007148153 -0.058192287 -0.06486943 -0.01011918 0.0154514685 0.01744701
-0.016818294 -0.015076852 -0.008007594 0.0021927021 0.00041013182 -0.0067898096 0.0023478558 -0.003165382
0.018808212 -0.07954232 -0.101735204 -0.005006515 0.05003304 0.034578264 0.003631446 0.00976139
-0.025087573 -0.012084413 -0.009892254 0.021315027 0.01667317 -0.0096541755 0.0021938502 -0.056292757
-0.14266284 -0.028729944 -0.003143303 0.01429831 -0.0028487253 -0.015644236 0.015188463 -0.013993937

temporal_block.weight_hh_l0 f4 [384, 128]
00000000: 6d85 2abb 2dfb 66b9 a48c f73b bc13 af39
00000010: 02a7 cb3b 8e0c 2b3c c625 42bb c02d 383b
00000020: b57d fd3b 2513 ddba 8361 7b3c 3148 a4bb
00000030: 5c52 b3bb 1e5d c9bb f230 adbb 3b39 e3bb
00000040: 2091 5fbc ed2c ba3b 6833 afbb 482f e83a
00000050: 145f 04bc ce05 dc3b 73f5 973b 9328 043c
00000060: 2216 18bb 00c9 fe3b d2db 203c 051f f0ba
00000070: d029 5437 9a24 f9ba f5eb 39bb 54c4 023c
00000080: 0883 823b e72e 903b 5001 b2bb 27de 793c
00000090: c3e9 09ba 8f4f d0ba d4b1 2cba 5387 76bb
000000a0: 94f0 88bb 1a07 203b e826 ee3b 3e4b 3ebb
000000b0: 39ca 1cbc 360f bdba d44c c33b 990e e33b
000000c0: 1cf9 99bb 0418 af3b 64fa 4a3a 283c 1cbb
000000d0: 6ed0 74bb fe73 693c ea79 f7bb cf99 263c
000000e0: 8ba8 38bb 3c2e c1ba 7bde c13a 9d38 823b
000000f0: 5183 ce3b c302 3b3c 6962 fdbb 2108 ccbb
00000100: 7f36 f23b 6e66 13bb 4fd4 463b ebd6 063c
00000110: 1fc6 ccbb 9363 313c 1084 bf3a c2e4 cebb
00000120: 3903 ba3b 8ca4 35ba e61f eb3b 8077 2bbc
00000130: e1d5 d73b 1756 c1bb 0c3c 523b 4c7d fd3b
00000140: 1d67 0f3c d710 eebb a88c 29b9 2abd 013a
00000150: 098b 10bc 2bc0 b7bb d805 6a3a 1b4c acbb
00000160: 9dc6 86ba 5573 71bb 87b7 843b d6a5 333b
00000170: 8f8d a43b d9cb 943b 002f caba 4a34 cb3b
00000180: d018 b73b 1c69 74bb 6b0c 003a 2a3c 393a
00000190: 492d 5abb fcf3 1c3c 6c20 d53b 7e87 febb
000001a0: 80d0 c13b bbbf 7cba 1f48 82ba d8cd 413b
000001b0: b49d 4f3c 3544 e8bb 10f7 533c 33a6 483a
000001c0: 473f b33a 2808 923b 24d3 7cba 1ff2 c6bb
000001d0: 6c6f 42bb d5f2 e93b c3c3 cdbb 9dbf 173c
000001e0: 218f 39bb 0487 073b ac7f 03bc 9b92 c43b
000001f0: a340 e03a fc97 37ba 621c 7c3b 339c 2438
00000200: cf7e f5ba 5ec6 a03a 1490 753b c911 473b
00000210: 4461 9b3b 9eda bd3b 269d 08bb ccca 563b
00000220: 6384 5a3b b658 6dbb 1221 643b 6ea7 a2bb
00000230: 37d9 bebb aba9 833a 702f bc3a c18c 19bb
00000240: 2b4c ccbb 3d36 8b3b 14a7 433a dbf3 5bbb
00000250: 581c b3bb 105b b43b ac60 673b f24c 11bb
00000260: f250 acba 25bb 9e3b eb88 753b b62b 913a
00000270: 79c1 c93a 2c6b c5ba 2146 1d39 c753 a93b
00000280: c097 3e3b b9b6 583b c06a 8dbb 5c74 803b
00000290: fb76 7a3b 7d68 6fbb 5992 2ebb 4759 87bb
000002a0: e0a3 7537 e2e3 3fbb 127b 873b cf34 47bb
000002b0: cce4 433a 624c fe3a d499 0a3b ab01 25bb
000002c0: 6ceb 72bb e42c 733b 81b7 e6ba b11b 86bb
000002d0: b514 92ba 2d51 9b3b d867 afbb 2b76 953b
000002e0: 47e9 423b a931 66bb 7224 82bb 9534 a63b
000002f0: c026 4e3b 5107 d83b 9aeb 67bb 726e 72bb
00000300: 1d57 c73b eeed 7abb 4d9c 343a 3792 a43b
00000310: db74 843b 5c98 a83b d17e babb 7368 0bbb
00000320: 53b3 d03b 345c e3b7 f4f4 803b 9693 80bb
00000330: b1a4 a8ba 8eca 5ebb c8fa bf3b 636c 803b
00000340: bfc9 6e3b 3d04 1e3b 38fe 9bb9 388b ae3b
00000350: 2287 03bc 1021 79bb 59d7 883a 42ca fc3a
00000360: e144 c33a 28c8 953b 98da 96bb 462e c4bb
00000370: ea0c 4c3b ab31 52bb 1f01 86bb 9b9e ae3b
00000380: ff4c 533b 39b1 6cbb 9f18 383a afbf 58bb
00000390: b9fa 82bb 2ce4 ad3b 8755 ab3b d93a 36ba
000003a0: 2bc9 9d3b c354 2fbb f427 8839 8a45 013b
000003b0: d5e2 8a39 5c31 5bbb 41cc b83b cf51 98ba
000003c0: eb59 9eba 6c0a e9b9 fed7 293a 5229 7e3b
000003d0: 1e66 5fbb 19c4 a03b d55e 49bb 3fea ad3b
000003e0: f862 733a 0a25 413b 1c10 85bb 288c e83a
000003f0: 7322 cdba cfd5 e73a 00d3 063b c175 c53a
-0.002601947 -0.0002202808 0.0075546075 0.00033393304 0.0062149772 0.010440005 -0.0029624566 0.002810344
0.0077359327 -0.0016866667 0.015343073 -0.0050134887 -0.0054724645 -0.0061451336 -0.0052853758 -0.0069343126
-0.01364544 0.005681625 -0.0053467043 0.0017714286 -0.008079309 0.006714559 0.004637414 0.008066314
-0.0023206552 0.007775426 0.009818034 -0.0018319791 1.264592e-05 -0.00190081 -0.00283694 0.007981379
0.0039829053 0.0044001224 -0.0054322854 0.015250719 -0.00052609685 -0.0015892851 -0.0006587778 -0.003761728
-0.00417907 0.0024418295 0.0072678216 -0.0029036547 -0.009569698 -0.0014424089 0.0059600864 0.0069292304
-0.0046988856 0.005343439 0.00077429996 -0.0023839567 -0.003735568 0.014248846 -0.007552375 0.010168507
-0.0028176631 -0.001473851 0.0014791036 0.003974034 0.006302275 0.011414233 -0.0077326787 -0.006226555
0.0073917503 -0.0022491473 0.0030338948 0.008229951 -0.006249204 0.010826963 0.0014611501 -0.006313891
0.0056766537 -0.00069291214 0.0071754334 -0.010465503 0.0065867756 -0.0059001553 0.0032079248 0.007735884
0.0087526115 -0.007265191 -0.00016169494 0.0004949147 -0.008822211 -0.005607625 0.00089272624 -0.005258096
-0.001028258 -0.0036842425 0.0040501985 0.0027412078 0.005021758 0.004540902 -0.0015425384 0.0062013017
0.0055876747 -0.0037294095 0.0004884663 0.0007066155 -0.0033291152 0.009579655 0.006504109 -0.007767617
0.0059147477 -0.0009641607 -0.0009939707 0.0029572155 0.012671877 -0.007088209 0.012937322 0.000765416
0.0013675474 0.0044565387 -0.00096444995 -0.0060713436 -0.0029668463 0.0071395435 -0.00627944 0.009261993
-0.0028314071 0.002067984 -0.008026045 0.005998922 0.0017109107 -0.00070035434 0.0038469066 3.924612e-05
-0.0018729809 0.0012266149 0.003746991 0.003037559 0.0047418196 0.0057938835 -0.002084562 0.0032774685
0.0033343069 -0.0036216206 0.003480975 -0.004963807 -0.005824234 0.0010045072 0.0014357399 -0.0023429843
-0.006234666 0.004248409 0.0007463556 -0.0033562097 -0.0054660253 0.0055040196 0.0035305424 -0.0022171107
-0.0013146682 0.0048440867 0.0037465643 0.0011075649 0.0015392742 -0.0015061847 0.00014998812 0.0051674577
0.002908215 0.0033067896 -0.004315704 0.003920121 0.003821789 -0.0036530786 -0.0026637523 -0.0041305157
1.4641293e-05 -0.0029280116 0.004134544 -0.0030396467 0.0007472753 0.0019401426 0.0021148818 -0.0025177996
-0.0037066592 0.0037105614 -0.0017602296 -0.0040926565 -0.0011145087 0.0047399015 -0.0053529553 0.004561206
0.0029741095 -0.0035124815 -0.00397163 0.0050721862 0.0031456202 0.006592669 -0.0035388232 -0.00369921
0.0060833828 -0.003828879 0.0006889746 0.005022313 0.0040422506 0.005145116 -0.005691387 -0.0021271973
0.0063690334 -2.7103444e-05 0.0039354507 -0.0039238436 -0.0012866465 -0.0033995244 0.005858753 0.0039191707
0.0036436168 0.0024111413 -0.00029753312 0.0053266548 -0.008027824 -0.0038014092 0.0010440155 0.0019286352
0.0014897847 0.0045709796 -0.004603695 -0.0059869615 0.0031135627 -0.0032073061 -0.004089489 0.005328966
0.0032241938 -0.0036116375 0.0007022712 -0.0033073237 -0.0039971736 0.005306741 0.0052287015 -0.0006951518
0.004815241 -0.0026753403 0.0002596971 0.0019725286 0.00026490414 -0.0033446169 0.0056395833 -0.001162106
-0.0012081241 -0.00044448988 0.0006479024 0.0038781953 -0.0034087966 0.004906189 -0.003072669 0.0053074653
0.0009284462 0.002947154 -0.0040607583 0.0017741965 -0.0015650525 0.0017687621 0.0020572543 0.0015065001

temporal_block.bias_ih_l0 f4 [384]
00000000: 1e93 b43b 2c34 25bc 0a29 95bc 8ccb 86bc
00000010: cd31 10bd 023c 2e3c 7b21 62bb de31 933b
00000020: d000 c93b a2fa 7ebb 75f9 58bc b536 8bbd
00000030: bf10 03bd 88c3 82bb 6fa2 88bc 61a7 73bb
00000040: 1814 68bd 3ab7 a53c 43b8 4cbc 260d 2ebc
00000050: bcc4 b8bc 3594 89bd 148c 83bb edc7 cbbb
00000060: a3b9 c6bb 350c 80bd 511f 96bd eb83 3dbd
00000070: 67eb 24bc 505e f6bb d8ac 40bc 61cf a5bc
00000080: 23c3 16bc 850d cebc 1701 8cbc 087e b8bc
00000090: 033e e7ba 4f87 dbbc 6018 cc3b ae78 37bc
000000a0: d36e 87bb b4ac 1c3c b165 93bd 6718 ac3b
000000b0: fc7b 52bd 5dea cbbb 2e06 083d 5951 b2bc
000000c0: 5f3d d3bc 6905 4bbd 791a cfba 5c3e 98b9
000000d0: 84c1 003c 0970 97ba 827e 01bd e493 94bc
000000e0: 8ad6 d7bb 093c b13b 057e 8bbc 4d0b 063d
000000f0: 6d7a 903c 0dac 1abd 147c e5bb f930 bbbc
00000100: a7c0 acbd 2fd6 8abc 76a9 4a3c 3354 72bb
00000110: 2cf3 e13c 069a cbbc d2ae c9bc 8d9e 3ebc
00000120: 7526 4239 320f 14bb 17be 62bd babf f63a
00000130: 6523 fbbc 96f6 2abd 6e9b 8c3a 2253 1abd
00000140: 9bb1 8cbd 4f33 913c 1732 32bc 495a 5bbc
00000150: 7ae3 353d ad5c 85bc 9e7e 6dbc df18 f7bc
00000160: 2710 803d 57e4 b8bc c5bb 63bc 4995 493c
00000170: cc35 a9bb 007a 3b39 b099 aabc 5def d1bc
00000180: 7803 8ebd 8fe9 40bc 4950 46ba 6501 d93c
00000190: 4062 57bc e5c6 203d eafd 94bd be89 4abc
000001a0: f47e 4dbd 3bde dabc e140 763c a2e3 6c3c
000001b0: d58d 4bbd b209 0ebb 89f7 17bd 5a52 94bb
000001c0: c943 3fbc 04a4 aebc e168 48bb 1888 3bba
000001d0: f384 313c 1580 643d 1482 473c b9fe 503d
000001e0: 6f5b 263b d608 64bc 1eb2 883a 7379 f23b
000001f0: 966a 10bb 2894 90bb 3bbd dbbb 7d2c b0bc
00000200: 9904 dbbd f8e2 80bd 4673 00be 3768 e5bd
00000210: 0ad3 afbd 77c4 0ebe d6bd 76bd a0bb 0abd
00000220: 2ecb 88bd f3db 58be 029f 63be 8db0 fbbd
00000230: 39f1 1bbe 77e8 e2bd 913d b1bd 930c dcbc
00000240: 0d62 e1bd 1ed8 dcbd 1e62 e3bd 736f c9bd
00000250: 7ba1 b3bd 6d05 d8bd 3270 c1bc 068c 61be
00000260: 29eb adbc bacd a6bd dfb4 7cbd 4bbe 90be
00000270: 3830 55bd 82ab 3bbd 26d0 26be b400 d5bd
00000280: cbfa 83bd 366c 46bd f2a4 64bd 4005 63be
00000290: bdb4 ecbd 93bd 1ebe 7144 34bd adc7 82bd
000002a0: 5b43 74bd f46a 38be a7a8 b4bd dee6 0ebd
000002b0: 916a 89be 1fe8 3abd 1ed0 4abd 6a5f 58be
000002c0: a84b d7bd b75f 47be 86cc 9cbc 0daf adbd
000002d0: b14b 76bc a222 0bbe 0f68 02be f87d b8bd
000002e0: a283 f7bd 46d3 04be cdc9 00be e4db f6bd
000002f0: f21d e2bc 6bd2 ffbd 24dd 8ebd af19 80bd
00000300: a327 1ebe 4128 cfbd cd3d 25bd 9639 88bd
00000310: 8434 43be 45f2 c6bd 0308 71be 7fc5 fcbc
00000320: 42b5 67be b069 97bb 0a40 5dbd 2c1b c2bd
00000330: 9a2e 6bbe 03e1 7bbd 6187 9cbe f854 9abd
00000340: 01e0 72bd bcdc 20be b65d 8bbe 9a76 39be
00000350: deda 5abe ab2c 18be 6ceb 64bc 2dd7 ddbd
00000360: 6dbc 6cbd 902b 8fbe 1700 90be 5475 34be
00000370: 9d65 debc dd9f 4ebe cfa6 08be 3122 43bd
00000380: 8610 debd 983a 8ebd 5c47 82bc 614a 11be
00000390: 0537 a4bd 9d30 e8bd 3415 f0bd 0946 02bd
000003a0: 4ed2 fbbd 5c72 d9bd ab00 edbc fff6 80bd
000003b0: 9898 62be 65ea 3fbd 1d0e a9bd b146 0abd
000003c0: 77c6 96bd 1382 4abe e3ed 79bd 54cc 24be
000003d0: a512 dfbd 6a9b 3cbe f3d9 fbbd dd04 0ebe
000003e0: d2cf 4ebc b0ec 75bd da2d 74bd 7336 8ebd
000003f0: 441f 1fbd da8d babd f998 89bd 2332 3dbe
0.005510702 -0.0100832395 -0.018208046 -0.01645448 -0.035203744 0.010634424 -0.003450482 0.0044920286
0.00613413 -0.0038906713 -0.013243069 -0.06797544 -0.031998392 -0.0039905943 -0.016679017 -0.0037178623
-0.056659788 0.02022897 -0.012495103 -0.010623252 -0.022554748 -0.067177214 -0.0040145013 -0.0062189014
-0.00606461 -0.06252328 -0.07330192 -0.046268385 -0.01006589 -0.007518567 -0.011759959 -0.020240488
-0.009201798 -0.025152931 -0.017090363 -0.022521034 -0.0017642382 -0.026797919 0.0062284917 -0.011198206
-0.0041330843 0.00956266 -0.071971305 0.0052519324 -0.051387772 -0.0062230066 0.03320902 -0.021767305
-0.0257861 -0.049565706 -0.0015800736 -0.0002903816 0.007858638 -0.0011553775 -0.031614788 -0.018136926
-0.0065868543 0.005408768 -0.017027864 0.03272562 0.017636502 -0.037761737 -0.0070033167 -0.0228505
-0.08435183 -0.016947834 0.012369504 -0.0036976456 0.027581774 -0.024853718 -0.024619494 -0.011634481
0.00018515608 -0.0022592065 -0.055357065 0.001882545 -0.030656526 -0.04173907 0.0010727474 -0.037676938
-0.06869813 0.017724661 -0.0108762 -0.013388225 0.04440639 -0.016279543 -0.01449552 -0.030163227
0.06253081 -0.022569818 -0.013899748 0.012303659 -0.005163884 0.00017879158 -0.020825237 -0.025626833
-0.06934255 -0.011774435 -0.0007565064 0.026489923 -0.013145983 0.03925218 -0.07274993 -0.012361942
-0.0501699 -0.026717296 0.015030117 0.014458569 -0.04969581 -0.002167326 -0.037101302 -0.0045264186
-0.011673876 -0.021318443 -0.003058009 -0.00071537634 0.01083492 0.05578621 0.012177009 0.051024172
0.0025384089 -0.013918122 0.001042906 0.007399732 -0.0022036186 -0.004412193 -0.0067059076 -0.021505589
-0.10694236 -0.06293291 -0.12543973 -0.11201518 -0.085851744 -0.13942133 -0.060239635 -0.03387034
-0.066793784 -0.21177654 -0.22228625 -0.12289534 -0.15228738 -0.110794954 -0.08654321 -0.026861465
-0.1100503 -0.107834086 -0.11102699 -0.098357104 -0.08771034 -0.1054791 -0.02361307 -0.22026071
-0.021230297 -0.08144708 -0.06169593 -0.28270182 -0.052047938 -0.04581786 -0.1629034 -0.10400525
-0.06444319 -0.04844304 -0.055821367 -0.22169971 -0.115579106 -0.15502004 -0.044010583 -0.063857414
-0.059634548 -0.1800955 -0.088212304 -0.03488814 -0.26839116 -0.045631524 -0.049514882 -0.21130148
-0.10512477 -0.19470106 -0.019140493 -0.08480654 -0.015032695 -0.1358743 -0.12735008 -0.09008402
-0.12085654 -0.1297122 -0.12576981 -0.120536596 -0.02760217 -0.12491306 -0.06975773 -0.06254899
-0.15444808 -0.101151 -0.04034214 -0.06651609 -0.19063002 -0.09714178 -0.23538212 -0.030855892
-0.22627738 -0.004620753 -0.05401615 -0.09477839 -0.22966996 -0.061493885 -0.30572036 -0.07535738
-0.059295658 -0.15709203 -0.27219933 -0.18111649 -0.21372554 -0.1486079 -0.013972145 -0.10832057
-0.057796884 -0.27962923 -0.2812507 -0.17622882 -0.027148062 -0.2017817 -0.13344882 -0.04764003
-0.10842995 -0.069447696 -0.015903167 -0.1418853 -0.08018307 -0.11337397 -0.11722794 -0.031805072
-0.12295972 -0.106175154 -0.028930983 -0.06297111 -0.22128522 -0.046854395 -0.08254645 -0.033758823
-0.07362073 -0.19776182 -0.061017882 -0.1609357 -0.10892228 -0.18418661 -0.1229743 -0.13869043
-0.01262279 -0.060040176 -0.05961404 -0.06943979 -0.038848177 -0.09109087 -0.0671863 -0.18476157

temporal_block.bias_hh_l0 f4 [384]
00000000: 27cc 70bb b482 24bc 63ae cbbc f252 84bc
00000010: 893c 763c 4b83 6bbd 0f83 7abb cb9a 443a
00000020: 36d4 a0bc f007 b4bb f12b 44bc 2664 87bd
00000030: 1b43 8cbd 7873 9fb9 0090 8dbc be40 03bc
00000040: aff4 67bd 43c1 223d a3ab 2ebc 429f da3b
00000050: 2667 f0bc 2e9f 8bbd 9d44 44bb aab5 15bc
00000060: c0a9 8dbc 71a1 4bbd 51fe 08bd a61e 00bc
00000070: 98e4 24bc cc51 0cb9 858e 8dbc e5e8 90bc
00000080: 5c0a 073b 4e75 2dbd a4de 9bbc 11de e2bc
00000090: daec d13a 3ec3 ddbb b06f cb3b 7cbc 69bb
000000a0: 2c9f 9fbb d0bc 9ebc a783 50bd 4a71 e03b
000000b0: 7b74 1cbd 0a2a d0bb 31d3 66bd 12ae 07bd
000000c0: bb42 f8bc e1e8 26bc 5fde cdba 0754 273c
000000d0: 232e 023b 108d 24bd e458 3cbd 955c f9bc
000000e0: 1f06 a0bc 8fc7 9e3b 9798 f4bb 66ab 2ebd
000000f0: e4c8 35bc 7243 81bd a2eb 14bc 8080 483c
00000100: 8418 92bd 1719 47bb 00ea 513c 8cae 6cbd
00000110: d140 c5bc b555 a5bc d766 00bd f1ed 4abc
00000120: 9f27 edbc 88bb 15bb f95a 2e3d b96c 903c
00000130: f153 89bc 5acb 583d fe01 93bc d9cf 2bbd
00000140: ed09 7aba de9d 27bd d6a3 18bc eb37 8bbc
00000150: 6c2c b2bb 23d7 c8bb 5aa5 42bb 5c5c 96bc
00000160: f0cb 1bbc 58b5 203d 0bec 3fbd 91a8 b9bc
00000170: 383f a6bb 8cfe 8f3b 9d2d d7bc 0f1b a0bc
00000180: 1736 98bd 9854 7fbc 7fd0 96bc 1242 513c
00000190: 49f8 87bc 1f79 f83c 82cb babc 8eeb 4bbc
000001a0: 1a16 02bd 7c1e e0bb 0e91 193c c450 13bc
000001b0: f170 1bbb 2e7d 9d3b efe7 5cbd 3152 94bb
000001c0: a211 24bc 843d b6bc 9df4 46bb 2fc3 bdbb
000001d0: 72e6 33bc 5d28 8a3d d2a8 39bc 363a 6abd
000001e0: 6d7b 9a3b 77f8 ef3c f6af abbc 35b1 f23b
000001f0: 00fb 9fba 57bf 39b9 2680 18bc 1dea b13b
00000200: ed05 dbbd 89e2 80bd aa49 03be 5834 e4bd
00000210: c264 abbd ec87 1bbe 3bad 76bd 44ff 0abd
00000220: ad19 8bbd 21eb 58be 9750 64be b11f f3bd
00000230: 84a8 1ebe 97fe e2bd 0d65 b1bd b9b2 ddbc
00000240: 3bf3 dfbd 0578 d3bd 29dd e3bd 2839 c8bd
00000250: f2be aebd d47a d3bd b9a6 c0bc 32b5 61be
00000260: 2c25 a6bc 3738 a6bd c340 80bd 1c34 91be
00000270: 6a49 55bd 2870 36bd ebde 26be 3b45 d0bd
00000280: 7640 84bd ceb7 42bd 41ad 5bbd 1b90 62be
00000290: 76e6 ebbd dcd5 1dbe e394 2fbd 3d04 83bd
000002a0: 15cb 73bd d714 39be c264 9ebd 6a5e 17bd
000002b0: c47e 89be 88e5 3abd f546 65bd 9c6c 58be
000002c0: 8c4c d3bd cfca 48be e032 9dbc 200f adbd
000002d0: d0f1 82bc 0a2c 0abe fa75 03be 6cb3 b3bd
000002e0: 3d81 f7bd c2d2 04be c35a 00be d930 f9bd
000002f0: 34d6 ebbc 6f6b fdbd 3ad9 8ebd d253 87bd
00000300: 2904 23be 77af cfbd 453f 25bd 5243 80bd
00000310: fa7f 43be c34d c3bd 9007 71be 0128 01bd
00000320: 54cb 54be 7369 97bb f0d1 51bd 890d c0bd
00000330: 3c46 6bbe 72f0 84bd 6787 9cbe d4e9 a1bd
00000340: 6a60 6ebd bcf2 20be f1b0 8bbe 0412 40be
00000350: bdf3 4bbe 573b 1dbe 525e 63bc e69d ddbd
00000360: ebb7 6cbd 2f80 8ebe 7807 90be 0a23 33be
00000370: b642 dbbc 5b68 4ebe 9da3 07be c004 43bd
00000380: cb3a d7bd 4a08 8ebd fe1d 82bc 320c 11be
00000390: 8453 a4bd e092 e7bd 79a6 ecbd 0042 02bd
000003a0: c025 febd c726 dabd e902 edbc ed70 80bd
000003b0: 11d9 62be 13eb 36bd fc75 b6bd 2144 0abd
000003c0: d6ba 96bd f577 4abe 96eb 79bd 70c8 24be
000003d0: 8c4e e0bd 4a58 34be 5caa 00be c9cf 0fbe
000003e0: da8d 54bc b6d7 80bd d3c4 7cbd cf29 8ebd
000003f0: 0123 1fbd 9064 babd 6aa1 89bd 9617 3ebe
-0.0036742778 -0.010040928 -0.024863428 -0.016152833 0.015029081 -0.057498258 -0.003822509 0.00074998726
-0.01963244 -0.0054941103 -0.011973367 -0.06610899 -0.06848737 -0.00030412874 -0.017280579 -0.008011041
-0.056629833 0.03973509 -0.010661039 0.006671817 -0.02934606 -0.068174705 -0.0029948123 -0.00913755
-0.017292857 -0.04971451 -0.03344566 -0.007819807 -0.010064267 -0.00013381912 -0.017279873 -0.017689178
0.002060554 -0.0423482 -0.019027062 -0.02769378 0.0016016022 -0.0067676594 0.0062083825 -0.0035665324
-0.0048712697 -0.019377142 -0.050906803 0.0068494426 -0.038197022 -0.0063526677 -0.05635375 -0.03312499
-0.030305257 -0.010187359 -0.001570653 0.010212905 0.0019863925 -0.04017359 -0.04598321 -0.030439654
-0.019534169 0.0048455666 -0.007464479 -0.042643927 -0.011095259 -0.06311692 -0.009089382 0.012237668
-0.07133582 -0.0030379945 0.012812138 -0.05778365 -0.024078758 -0.02018247 -0.031348076 -0.012385831
-0.028949557 -0.0022847373 0.042567227 0.017629968 -0.01676366 0.052928306 -0.017945286 -0.041946266
-0.0009538222 -0.04092204 -0.009316405 -0.016994437 -0.0054374244 -0.006129162 -0.0029700608 -0.018354587
-0.009509072 0.039235443 -0.046855967 -0.022663387 -0.005073454 0.004394358 -0.026266867 -0.019544153
-0.07432192 -0.015584134 -0.018409966 0.0127721 -0.016597884 0.030331193 -0.022802118 -0.012446297
-0.03175936 -0.0068395715 0.009372963 -0.008991424 -0.0023718441 0.0048061823 -0.053932127 -0.0045263995
-0.01001397 -0.02224613 -0.0030358203 -0.00579109 -0.010980235 0.0674598 -0.011331754 -0.05718442
0.0047144205 0.029293282 -0.020957928 0.0074063786 -0.0012205541 -0.00017714254 -0.009307897 0.00542952
-0.1069449 -0.06293208 -0.1282107 -0.11142796 -0.083688274 -0.15188569 -0.0602238 -0.033934847
-0.06792007 -0.21183445 -0.22296368 -0.11871279 -0.15493971 -0.110837154 -0.08661852 -0.02706276
-0.109350644 -0.10325626 -0.11126167 -0.09776527 -0.08532514 -0.10326162 -0.023517 -0.22041777
-0.020281397 -0.08116191 -0.06262352 -0.2836007 -0.052071966 -0.044540554 -0.16295974 -0.10169455
-0.064576074 -0.04753857 -0.053632025 -0.22125284 -0.11518566 -0.15413612 -0.0428666 -0.06397293
-0.059519846 -0.18074356 -0.07734062 -0.036955275 -0.26854527 -0.045629054 -0.055975873 -0.21135181
-0.103173345 -0.19608615 -0.019189298 -0.084501505 -0.015984446 -0.13493362 -0.12837973 -0.087744564
-0.12085197 -0.12971023 -0.12534623 -0.1216752 -0.028788663 -0.12374007 -0.069750264 -0.06607784
-0.15919556 -0.10140889 -0.04034354 -0.0626284 -0.19091788 -0.09536316 -0.23538041 -0.03153229
-0.20780689 -0.004620725 -0.051225603 -0.093775816 -0.22976011 -0.06491174 -0.30572054 -0.07905927
-0.058197416 -0.15717596 -0.27283433 -0.18756872 -0.19917198 -0.15354668 -0.013877468 -0.10821132
-0.057792585 -0.2783217 -0.28130698 -0.17493835 -0.026765209 -0.20156996 -0.13246007 -0.04761195
-0.10509261 -0.06935175 -0.015883442 -0.14164808 -0.08023742 -0.11307311 -0.1155519 -0.031801224
-0.12409544 -0.106519274 -0.028932052 -0.06271539 -0.22153117 -0.044657778 -0.089092225 -0.03375638
-0.07359855 -0.19772322 -0.061015688 -0.16092086 -0.109524816 -0.17611805 -0.12564987 -0.14044107
-0.012973273 -0.062911436 -0.061711144 -0.06941568 -0.03885174 -0.09101212 -0.067202404 -0.18563685

region_embedding.weight f4 [4, 32]
00000000: b4e4 84be 601f 60be 8f80 923a 57d1 9a3f
00000010: dbad 883f 7a8c 803e 37fc a5bd 20e1 923d
00000020: d254 843c 43d5 4cbe c3f1 21bd 10fa 0bbf
00000030: 7d56 163f cd2d 7cbe c82d ffbe fd64 ce3b
00000040: c8b7 f93d 846f d0bd 8eb2 523e af1f 193f
00000050: 6c5f 053f c57d bebe 4b97 16bf ae88 e4be
00000060: 3940 f53e fea7 393f f1d1 f83e 7e1e 08bd
00000070: fb6d 003f d656 87be d4eb 45be fc6d 0abf
00000080: 7c9e 41be ce58 69be 5ca3 e838 8d7c fb3e
00000090: 75e1 3e3d 3b96 f13e 4830 99be 0e20 853e
000000a0: d8cc eb3d fe0d a0be 9e37 94be 3cf6 1b3e
000000b0: a2f1 8a3e 1d6b 47bf 242a 583f d36f da3e
000000c0: 86de 5b3e 7352 ccbe c8f3 e93e 1054 d23d
000000d0: f833 39bd 5231 d9bd a0db bfbd a1d6 90be
000000e0: 391d 84be cee0 69be 86e4 3e3f c57b 1b3e
000000f0: a03d 2d3e fa4e 223f 14f0 d13d a9c2 6b3e
00000100: 2f67 493d e013 fb3e ae9b 15ba 799f 9fbe
00000110: a988 9b3f cfaf bcbd bf95 0dbe 4835 84bc
00000120: c9ca ec3e e565 b5bd 4ed3 89be bed1 12bf
00000130: accd 2abe e413 f3bd 4a30 8d3e 335c 27bc
00000140: 53ca 0f3f 839c 52bd a00e 323e f79b 373f
00000150: 5bd8 3e3e 7f2f 0d3e c8d8 8b3d 2c60 1a3f
00000160: 8fa5 2f3e 8c2d 44be a132 af3e b2db a13e
00000170: d568 a23e e24d 143e 50ed 7d3e eee7 273f
00000180: fd66 5abe e5b2 2a3f fdf7 4eb8 b039 11bf
00000190: f062 3ebf 0010 753e 694b ae3d 43fb 75bf
000001a0: 4694 e2be cb54 7abe 128b d0be 5f86 bcbe
000001b0: 161a a13e f994 19bf aa19 26be cba2 05be
000001c0: 54a0 06bf bcf4 9cbd be93 393e f096 21bf
000001d0: 64c8 6cbf 8e71 093d f2b2 dabe e1cc 01be
000001e0: bb85 bbbe eb45 4d3f d7d3 aabe 15c9 8cbe
000001f0: 8bfb 6c3e f9d9 a23e 7061 5dbe d73f 5a3f
-0.25955737 -0.21886969 0.001117723 1.2095135 1.0678056 0.25107175 -0.08104747 0.071718454
0.016153727 -0.20003228 -0.039537203 -0.5467844 0.5872572 -0.24626847 -0.49839616 0.00629866
0.121932566 -0.1017752 0.20575926 0.5981397 0.5209873 -0.3720533 -0.58824605 -0.44635528
0.4790056 0.7252196 0.48597673 -0.033232205 0.50167817 -0.26433438 -0.19328243 -0.5407407
-0.18908113 -0.22787783 0.0001109305 0.49118462 0.04660173 0.4718493 -0.29919648 0.26001018
0.1151368 -0.31260675 -0.28948683 0.1523065 0.27137476 -0.77897817 0.844393 0.4266344
0.21471605 -0.39906654 0.45693803 0.1026994 -0.045215577 -0.1060511 -0.09368062 -0.2828875
-0.25803545 -0.22839662 0.7456745 0.15183933 0.1691804 0.6340176 0.102508694 0.23023476
0.04917067 0.490386 -0.0005707097 -0.31176355 1.215108 -0.0921322 -0.13826655 -0.016138688
0.46248463 -0.088573255 -0.26919025 -0.5735129 -0.1668002 -0.11869028 0.27575904 -0.010214853
0.561681 -0.051418792 0.17388391 0.7172236 0.1863722 0.1378765 0.06828457 0.60302997
0.17153 -0.19158 0.34218314 0.31612927 0.31720605 0.14482835 0.24797559 0.6558827
-0.2132835 0.6667922 -4.9345184e-05 -0.5672865 -0.74369717 0.23931885 0.08510477 -0.9608652
-0.4425375 -0.24446408 -0.40731102 -0.36821267 0.31465214 -0.5999294 -0.16220728 -0.13050382
-0.5258839 -0.07663867 0.18122765 -0.6312094 -0.9249327 0.03355556 -0.4271465 -0.12675811
-0.36625466 0.8018481 -0.33364746 -0.27497163 0.23142831 0.31806925 -0.216192 0.8525366

district_embedding.weight f4 [20, 32]
00000000: e086 0e3d c34a 053c fb39 893d aef9 54bd
00000010: 9567 81bb 2d1a 27be 055a 0dbc 80bb 6739
00000020: 2db2 b0bd 047f b6bd 6d54 febb 82b1 9d3c
00000030: 01f3 ebbd a685 9dbe c459 ce3d a903 0abe
00000040: ee89 23bc 847d bbbc 1b10 b23c 8d65 a03d
00000050: c33c 08bd 4fe5 c8bb 2ef5 b63d 1e7c bebc
00000060: 0938 b5bd 0a33 98bd 4877 79bd 09ce d83d
00000070: 3744 27bc 6aa2 2a3d 63c0 cf3c f4b5 b6bd
00000080: 4b55 ebbc 11a3 ecbd 797c 2abd 76f5 c13b
00000090: 69e1 edbc a0ef 8abd ce4a 1bbd 1162 10bc
000000a0: cbf4 16bd 1b21 983d 5c14 543e 7f18 d03c
000000b0: be44 b23c da1b e93d d8cd 8f3d b7f8 9d3c
000000c0: 30c3 aabc 517c cd3d 32a3 1d3d b228 a13d
000000d0: 197e 4dbc 0840 b83d 4d7b 0bbe a101 19bc
000000e0: 78d4 933d b0cc 1b3d f730 013e a1f3 363d
000000f0: 63e7 dc3c 4ec4 ef3b 7561 08be 681a f5bd
00000100: e757 7e3c 1f06 8abd 5e79 3c3d 8022 c73c
00000110: 5419 0bbe c1ab 8b3d 211b e4bd 1fa4 0d3e
00000120: 365b 00be d1a1 76bd 393b 8cbc d7a6 8bbc
00000130: 45da 893b 4200 9dbc af5f eebc 5991 4ebc
00000140: f01e 27be 5afd 0d3c 5ee1 8a3c faea 7dbe
00000150: 9765 753d 8822 1abd e827 833d 745d fabd
00000160: 8c97 4dbd b11e a83c eab9 a4bd 0176 923e
00000170: 99ec 2abd 2ef9 b7bd 2cd2 92bc 920d d73d
00000180: b6c2 5fbc edff c93c 9a63 43be da9b 52bd
00000190: 0038 393e 8199 cdba 2f75 943c eb47 053e
000001a0: f02c 4fbc 8ef4 88bd 2fa5 8ebd 65cb b13d
000001b0: 2bd3 c0bd 0500 6cbc cad3 06bd 8915 c1bd
000001c0: 5d0d 953c 2396 413c b398 89bb 80a4 c53c
000001d0: 0dc1 4a3d 6dff debc d85e a8bd 66ac 07bd
000001e0: 57f5 903c 1d5d 603d 47f6 e9bd 1a28 d53d
000001f0: 6a35 08bd b001 493e 13cd c5bc a703 01be
00000200: 005f 733b 9b04 db3c 8fff 163e 8f46 0c3e
00000210: 132f b33c 429e d93b e6a9 8ebc 2121 5abe
00000220: 38cf 843b 8136 b33c 9aa0 233d a2d1 873c
00000230: 8dcb 403d c293 a53c f79e 92bc 7465 30be
00000240: e26c 85bd 9227 d43c beba 18bd 9b04 9bbc
00000250: b605 cebc 5a55 2d3c 6779 1b3d 0eed 773d
00000260: f852 623d d5c4 163c 6b09 c73a 663a 8d3d
00000270: 281e 003e 5b6f 18be 2370 943d 9540 1dbe
00000280: a5e2 2e3d c339 e33d ace7 6e3d 7d83 8d3e
00000290: da20 aabb dfe6 df3c 089c a93d de0b 85be
000002a0: 8610 243e 2fc9 c5bd 5dd1 b8bd dfa8 6ebd
000002b0: f893 843c 704f 06bd 63a0 253d 4287 523c
000002c0: 11bb b0bd c8d2 9d3d ef62 593c 45b8 8bbd
000002d0: d7b3 3f3e 6c5b ee3d b522 e23d adf1 e33d
000002e0: 3e9b 4fbd 7c79 7f3d 6090 eebc e58e 933e
000002f0: 7666 a53c 7942 2e3e 2145 4dbc 17f0 abbd
00000300: dc4f 053c e6e4 01be b612 b23d 24c7 2cbe
00000310: 8b3c 7b3d e2da 4d3c 9e49 e13d 84e9 29bd
00000320: 81e2 55bd b4ec a63d 962f 633d cd79 a53d
00000330: e17c 52bd e78b 943d 14eb 95be 5306 d4bd
00000340: c4a1 27be f899 8ebd 9a16 613d d8ce 383d
00000350: 5bc1 22be 5be1 713d a9a8 f9bd bbd5 db3c
00000360: f035 f7bc 7125 85be bac0 133d 6744 a03e
00000370: 953a 41bd b306 67bd eed1 563d 62ea 903c
00000380: 1317 22bd 58e7 39bd 10dd c4bc ea46 82be
00000390: 76f4 a6bc 6d20 d33d d2fb 3fbd 8a6d e8be
000003a0: 8901 9cbd 2c91 8c3e 0457 bcbd b8ba 3a3c
000003b0: 2acc 1a3d 9c6a 943d 0f33 1e3d ff6a 4abe
000003c0: 27a6 8ebe 2e3b 6e3d 6a80 5ebd 06ec 06bd
000003d0: d475 863e dc40 60bd f426 123e 3d40 1f3e
000003e0: 6404 83bd 6a8f 3cbd 2dbf 073e 8f33 9abd
000003f0: 1820 fcbc 0bcd abbd 5a05 df3d f119 80bd
0.034796596 0.0081355 0.06700512 -0.051995926 -0.0039491155 -0.16318579 -0.008627419 0.00022099726
-0.08627734 -0.08910945 -0.007761529 0.019249681 -0.11520959 -0.30766028 0.10075715 -0.13477959
-0.0099816155 -0.022886999 0.021736195 0.07831869 -0.033261072 -0.0061308513 0.08933483 -0.023252543
-0.088485785 -0.0743161 -0.06090477 0.10586173 -0.010209135 0.041658796 0.025360292 -0.089214236
-0.028727194 -0.1155454 -0.041622613 0.005919154 -0.029038148 -0.06783986 -0.037913136 -0.008812443
-0.036854547 0.07428189 0.20710891 0.025402306 0.021761294 0.113822654 0.070216835 0.019283636
-0.020845026 0.10033477 0.038485713 0.0786909 -0.012542271 0.08996588 -0.13621254 -0.009338767
0.072182596 0.038037002 0.12616335 0.044665936 0.026965803 0.0073171025 -0.13318427 -0.11967927
0.015523887 -0.06739449 0.046014182 0.024308443 -0.1358388 0.06819869 -0.11137987 0.13832138
-0.12534794 -0.060212914 -0.017118083 -0.017047329 0.004206928 -0.019165162 -0.02909836 -0.012607896
-0.16320395 0.008666361 0.016953167 -0.24796668 0.059911337 -0.037630588 0.06404096 -0.12224856
-0.050193354 0.020522447 -0.08043273 0.28605655 -0.041729543 -0.08983074 -0.017922483 0.10500635
-0.013657263 0.024658168 -0.19080964 -0.051418163 0.18087769 -0.0015686007 0.018122284 0.13015716
-0.012644991 -0.0668727 -0.069651 0.086813726 -0.09415277 -0.0144043015 -0.03291682 -0.09427936
0.018194849 0.011815581 -0.0041991114 0.024126291 0.049500514 -0.027221406 -0.08221215 -0.033123396
0.017695112 0.0547763 -0.11423927 0.104080394 -0.033254065 0.1962955 -0.024145639 -0.1259905
0.0037135482 0.026735594 0.14745925 0.13698791 0.021873033 0.0066411803 -0.017414998 -0.213017
0.0040530227 0.021876575 0.039948083 0.016579453 0.04706912 0.020212058 -0.017898066 -0.17226201
-0.065149084 0.025897775 -0.037287466 -0.018923094 -0.025149208 0.010579431 0.037957575 0.060528807
0.055254906 0.009202202 0.0015185302 0.06895904 0.12511504 -0.14886229 0.07247951 -0.15356667
0.042696614 0.110950015 0.05832641 0.2763938 -0.0051919045 0.027331768 0.08281714 -0.25985616
0.16021928 -0.09657513 -0.09024308 -0.058266517 0.016183838 -0.0327906 0.04043616 0.012849631
-0.0862943 0.07706219 0.0132682165 -0.06822256 0.18720947 0.11638531 0.11041776 0.1113008
-0.05068516 0.062371716 -0.029121578 0.28819957 0.020190459 0.17017545 -0.012528689 -0.08395403
0.008136716 -0.12684974 0.08694975 -0.16872841 0.061337035 0.012564393 0.110003695 -0.041482463
-0.052217964 0.08150616 0.055465303 0.08079872 -0.051388625 0.07253247 -0.29280913 -0.10352769
-0.16370302 -0.06962961 0.054953195 0.045119137 -0.15894072 0.059052806 -0.121903725 0.026835313
-0.030177087 -0.26005128 0.03607247 0.31302187 -0.04717501 -0.056402873 0.0524463 0.017689887
-0.039572787 -0.045386642 -0.024031192 -0.25444728 -0.02038024 0.10308919 -0.046871014 -0.45396072
-0.0761748 0.27454507 -0.091962844 0.011397056 0.037792362 0.072468966 0.038622912 -0.19767378
-0.2786114 0.058161907 -0.054321684 -0.032939933 0.2626177 -0.054749355 0.14272672 0.15551849
-0.06397322 -0.046035208 0.13256522 -0.07529365 -0.030777022 -0.08388718 0.108896926 -0.06254948

crop_embedding.weight f4 [12, 32]
00000000: 1429 45be 5994 e6bd 0729 293f 027d f9bd
00000010: 36dc 0bbe ca92 30be 86a5 333c 0de6 c63d
00000020: 3a09 46be 7114 a33e 4a2b 313e 1ca0 1b3d
00000030: f1bd 81bc e410 013b 4e1b 823c 7d4a df3c
00000040: f334 563e b1bf d23d 806a 82be 785d f73b
00000050: acc2 163e 4b0f 69be 3fc7 09bf 3e4d 303e
00000060: 5eae 033e 27cb 9dbe ec25 32be c78e b23c
00000070: 413f 283e d2ba 09be 1cbb 5a3e 8c9f dbbe
00000080: 02d1 733d 2221 163f 0a92 34be e5d8 a83e
00000090: 84ee 9e3e 76a3 b83d 3c4f 30be dbff 123e
000000a0: 548a 82bd 19fc a3be ab57 4fbc 574a 82bd
000000b0: d56a 6dbe 2e39 09be bd04 c8bc da32 e3bd
000000c0: 70d7 3ebd 6ff7 4bbe a3f6 35be c83a 473e
000000d0: 3e5e 7fbe 8b92 76bf 3748 91bc 7724 d33d
000000e0: c8f7 9e3b a5b6 6c3d 708c 373e cbf4 8abe
000000f0: 9008 1dbe 0a84 49bd 0e4b ab3d e4fe 933e
00000100: 99d0 67be ef6b 1a3f b5b9 ffbe 6cd3 a43d
00000110: 56ca 673e 6de5 75be 63ea 493d 978d 7abf
00000120: a73c 543d 9fac 073d 2c81 b4be da7f 8fbe
00000130: 0967 483d 76ee b83e 9048 debe e9a0 dc3a
00000140: e48b babd 9941 f7bd 1c0b e33e 9184 a03e
00000150: b5d8 1d3e 039c 99bd f3d0 4b3b e269 7f3c
00000160: 8e09 513e 2af3 2cbe fb48 c33e 33aa 5bbe
00000170: b3c6 883d 3c8c 583e 86dd 813f 595b f2bd
00000180: b401 aabe 8ddd 733e fc5f 88be 2f73 913e
00000190: 36cc 99bc cf4e e6bd 71eb 2abe d0db 093d
000001a0: 0525 cabd 2ee9 c13d 4479 1b3e df0c 0ebe
000001b0: c2e6 fabc a316 ef3e 9100 e93e 2a49 ac3e
000001c0: 6434 1a3e 0792 8abe 2fd9 b7bd 3fac 91bd
000001d0: edb3 ae3e 0dcd 193d ec28 57bf fbcb 22bd
000001e0: 8e17 1d3e f274 c9bd 7e45 c5bd 6a6a b9be
000001f0: 3501 c7be e93e f9bd 5ad8 bfbe 7630 e1bd
00000200: 431d fb3e e266 49be 037f 58be faa9 cf3b
00000210: 25ec 783d 3626 823e 77fb 8ebd 7e51 9cbe
00000220: c865 99be 4f45 ef3b 2b19 94be 5c34 203d
00000230: 9008 223f 61ac cdbe 8691 a93d 601d 16be
00000240: 8136 afbd d0d8 31bc 73a3 0f3e fa86 fb3e
00000250: b182 ae3e 5dfe 6d3d d9ed b2be bfa1 fd3c
00000260: d74b ecbd 61b1 6ebe 6dff a83e 061e dbbe
00000270: 080a d6be 4795 9dbd ef63 59bf f859 a9bd
00000280: 5baf 5e3e 20c9 9dbe 401e 48bc 1725 543d
00000290: 44f8 bd3d 7035 d53c c2aa ef3d 0e8d 31be
000002a0: db97 c1bd 06ef 3fbf 42ac 6abd 248f 823d
000002b0: 9d43 343c e9d9 1dbe 1a7a d5be 7b1d bf3d
000002c0: af01 62be 7cf4 c03d c975 a9be f890 bbbd
000002d0: 6324 1dbd 72ec 203e 0529 293f cce9 a33e
000002e0: 007a fb3d bf20 853e e02b f3be f4e1 aa3d
000002f0: 582d bdbe 5e32 823e aa02 e3bd a44c 493e
00000300: 4cec ca3e 9c85 dc3e f5c0 bbbe 2dbe 28be
00000310: 77bc a13d f25f 90bd e3dc 1f3e 4898 bcbe
00000320: 0fdc 9abd 6995 55bc 26ca d2bd 56fa 28be
00000330: ff02 893d 37b0 83be ae01 9bbe 048f 393e
00000340: 0457 d4bc 4a1b 9d3e b8a3 003e a92b 3f3e
00000350: 2012 463e 5302 e5bd d0cc 043f e8b8 813d
00000360: a480 6ebd 51a0 4a3d cb13 b2bd c73f ce3e
00000370: 26af 0b3d 2576 f33d 62a3 a33d dcf9 cb3e
00000380: da4c 41be e3fa 383f 49f5 043f 99ab a4bd
00000390: 3c6b 803e 8b4c ce3c f28b 9ebd f35e 453e
000003a0: a20c f4bd aeb5 f83d 1e21 dcbd 97c5 24bf
000003b0: f351 013e 82c2 e63e b490 d83e b43a 803e
000003c0: ad70 a0bd 58d6 883e c40f 473e a3dd 0d3e
000003d0: ccdb 17be aaa0 7abe 821d 88bd 1084 68be
000003e0: 1607 ab3d ba81 bc3d dc76 89bc b9bf c93d
000003f0: 8c05 593e be2c b53c 49e0 c2bd afb0 a8bd
-0.19253951 -0.11258764 0.6607823 -0.121820465 -0.13658223 -0.17243496 0.010964757 0.097118475
-0.19339457 0.31851533 0.1730167 0.03799449 -0.015837641 0.0019693905 0.01588216 0.027257198
0.20918636 0.102904685 -0.25471878 0.007548984 0.14722699 -0.2275974 -0.5381965 0.17216966
0.12859485 -0.30819055 -0.17397279 0.021796597 0.1643038 -0.13450173 0.21360439 -0.42895162
0.059525497 0.58644307 -0.17633834 0.32977977 0.31041348 0.09015553 -0.17217726 0.14355414
-0.0637404 -0.32028273 -0.012655179 -0.063618354 -0.23185284 -0.13400719 -0.024416322 -0.110936835
-0.046592176 -0.19918607 -0.17769866 0.19456017 -0.24938294 -0.96317357 -0.01773463 0.103096895
0.004851315 0.05779137 0.17924666 -0.27139887 -0.15335298 -0.049198188 0.08363925 0.28905404
-0.22638167 0.60320944 -0.4994637 0.08048138 0.22635779 -0.240133 0.049295794 -0.978723
0.051815655 0.03312361 -0.352548 -0.2802723 0.048926387 0.3611943 -0.43414736 0.0016832623
-0.09108713 -0.12073059 0.44344413 0.3135114 0.15414698 -0.0750046 0.0031099885 0.015589209
0.20413801 -0.16889635 0.38141617 -0.21451645 0.06678524 0.21147245 1.0145729 -0.118338294
-0.33204424 0.23814984 -0.2663573 0.2840819 -0.018774133 -0.112455 -0.16691376 0.033656895
-0.09870342 0.094683036 0.15182978 -0.13872097 -0.030627612 0.46696958 0.45508245 0.3364957
0.15059048 -0.27064535 -0.08976971 -0.071129315 0.34121647 0.037549067 -0.84046817 -0.039745312
0.15341017 -0.09836759 -0.09632395 -0.36214 -0.38868108 -0.12170202 -0.3746975 -0.10995571
0.49045762 -0.19668153 -0.21142201 0.0063374015 0.06077208 0.25419778 -0.06981557 -0.30530924
-0.29960465 0.0073019634 -0.28925452 0.039112434 0.63294315 -0.40170577 0.082797095 -0.14659643
-0.08555318 -0.010854915 0.14027195 0.49126416 0.34084085 0.058103908 -0.34947088 0.030960916
-0.11537903 -0.23309852 0.33007374 -0.42796344 -0.41804528 -0.07694488 -0.8491811 -0.08269113
0.2174658 -0.3081751 -0.012214243 0.051793184 0.092758685 0.026026458 0.11702491 -0.17338964
-0.09452792 -0.74974096 -0.057293184 0.06374958 0.011002448 -0.15415157 -0.4169472 0.09331795
-0.22070955 0.09421632 -0.33097675 -0.0915851 -0.03836478 0.15715197 0.66078216 0.3201431
0.12279129 0.26001546 -0.4749441 0.083438784 -0.36948657 0.25429052 -0.110844925 0.19658142
0.39633405 0.43070686 -0.36670652 -0.16478796 0.07897275 -0.0704955 0.15611605 -0.3683493
-0.07561504 -0.01303611 -0.10292463 -0.16501746 0.066900246 -0.2572038 -0.3027472 0.18120962
-0.025920399 0.30684882 0.12562454 0.18668999 0.19342852 -0.11182084 0.5187502 0.06334096
-0.05822815 0.049469296 -0.086951815 0.40283033 0.03410258 0.11887769 0.07990147 0.39839065
-0.18876973 0.7225782 0.51936775 -0.08040542 0.25081813 0.025182983 -0.07741536 0.19274502
-0.11916472 0.12144028 -0.10748504 -0.64364 0.12628917 0.45070273 0.422979 0.25044787
-0.07833991 0.2672603 0.19439608 0.13854079 -0.1482994 -0.24475351 -0.06646253 -0.22706628
0.08350961 0.09204431 -0.01678031 0.09851021 0.21193522 0.022116061 -0.09515435 -0.08236825

weather_encoder.weight f4 [32, 2]
00000000: 61c7 9fbd 8bf6 0fbd db19 173d a10d 93bd
00000010: 73b8 31bd 9f00 05bc 2d57 92bc 121b 7dbd
00000020: 72d2 223e e9a5 c03d 63f9 143e 4f64 e5bd
00000030: 79db 2c3c fe36 b43b 19ec 303c 7a38 24bd
00000040: 047f 933b ff2a 803a cd50 8abd 7929 523d
00000050: 187e 07bd 28a0 f4bc 99d2 47bd 47c7 353b
00000060: 367a 343e c882 4cba 8fd7 4e3e 343d 54be
00000070: 4257 413e b8be 70bb d0e7 1fbe a578 d53d
00000080: 73dd 0fbd 640b e9bd 8514 123b 0501 1c3e
00000090: cd05 e23d b98d 903c faeb 3a3e c079 dbbd
000000a0: 02d9 093d 26a8 0f3e b839 553e 362f 9f3d
000000b0: ad0a 533d cdc8 ef3d 87ea 8fbd b652 193e
000000c0: 0845 07be 9dc6 223e cfb5 d93d a75d 56be
000000d0: 6113 acbb c89d abba fbd8 7c3d 9a91 01bc
000000e0: 8e19 353d c66c 553b 4797 a6bd dbc9 b23d
000000f0: 9b22 37be 39f1 a2bc 0ec8 313c 732e 293b
-0.078017004 -0.03514723 0.036889892 -0.07180334 -0.043388795 -0.008117824 -0.017863834 -0.061793394
0.15900591 0.09406645 0.14548258 -0.11200773 0.010550373 0.0054997196 0.010798478 -0.040092923
0.0045012254 0.0009778439 -0.06753693 0.051309083 -0.033079237 -0.029861525 -0.048784826 0.0027737187
0.17624745 -0.00078014703 0.20199417 -0.20726472 0.18880942 -0.003673477 -0.15615773 0.10423402
-0.0351233 -0.11379126 0.0022290063 0.15234764 0.11036263 0.017645704 0.1825408 -0.10716581
0.03365422 0.14028987 0.20822799 0.07772677 0.051523853 0.117082216 -0.070271544 0.14972958
-0.13209927 0.15896077 0.1063038 -0.20934163 -0.0052513336 -0.0013093287 0.061730366 -0.007908249
0.044213824 0.0032566055 -0.081343226 0.08729907 -0.17884295 -0.019890415 0.010850919 0.002581504

weather_encoder.bias f4 [32]
00000000: db2f 23be 3657 9cbb 12dd 533c adeb 15be
00000010: 5f7f c03e 5d4d 193e b6c0 043a 08fb 08bc
00000020: bd2a 32ba 7b56 e6ba 5cee f0ba bd16 883b
00000030: c5c8 b03e 0c40 703e 0a9e 9abe a32f 41be
00000040: 78c1 173e 9270 833c b7e7 0c3e daad a8be
00000050: 730b a8be 5505 5abe 827c 833e 60de 193e
00000060: 3935 fabc 7a4a 6cbe 253c 3f3b 6f95 3ebe
00000070: bc06 35bd 768d 043e 776c 063e b6a1 96bb
-0.15936224 -0.0047711385 0.012931125 -0.14640684 0.37597176 0.14970918 0.00050641166 -0.008360632
-0.00067965296 -0.0017573381 -0.0018381584 0.0041531012 0.34528175 0.23461932 -0.301987 -0.18865828
0.14819896 0.016044889 0.13760267 -0.32945138 -0.32821235 -0.21291097 0.2568093 0.15026236
-0.030542957 -0.23075286 0.0029180136 -0.18611692 -0.044195876 0.12944588 0.13127314 -0.004596914
