models/best_temporal_model.pth (torch, 878633 bytes, 14 tensors)

temporal_block.weight_ih_l0 f4 [384, 7]
000000 1c f2 e4 3a 6a 65 9b bc 98 c4 df bc ea 0e b9 bd
       0.0017467174 -0.018969256 -0.027315423 -0.09036048
000010 3d 86 20 bd f1 6a 5d 3d 9e 6a 9f bc 22 e0 57 3d
       -0.03919052 0.054057065 -0.019460019 0.052703984
000020 65 69 31 ba a4 14 75 3d 2b 7b 7d bd 39 dc 5d 3c
       -0.0006767719 0.059834138 -0.06188504 0.013541275
000030 f9 a6 e7 3c 47 a0 5d bd 74 6c d5 bd 5f 25 52 bb
       0.028277861 -0.05410793 -0.104210764 -0.0032065732
000040 a7 a2 8a bd e4 8e df bd ea 39 e6 bc 06 ce 11 bd
       -0.06769305 -0.10915926 -0.028103787 -0.03559687
000050 a9 73 27 bd a9 08 89 bd b0 54 a6 3b a3 a4 7d 3d
       -0.040881786 -0.06691105 0.0050760135 0.061924588
000060 dc c0 46 bd 7a e3 27 bd e0 1a 9f 3d 8b e9 a7 3d
       -0.04852377 -0.040988423 0.07768798 0.08198842
000070 ec a3 86 bc 08 c0 12 3b e3 83 46 bb c6 ec 00 3d
       -0.016435586 0.0022392292 -0.0030291013 0.031475805
000080 4c e0 c8 3c 68 f4 65 bd c1 08 9e 3c 9f 77 03 3c
       0.024521016 -0.056141287 0.019291284 0.008024125
000090 bd 8e 35 bd a3 a9 b4 3d 21 a0 9a bd ee 64 25 bb
       -0.04432558 0.08821418 -0.075500734 -0.002523716
0000a0 9f b3 4d 3d f7 f0 c3 bb d3 e7 68 bc 0f ff 0f bd
       0.05022013 -0.005979653 -0.014215427 -0.035155352
0000b0 85 5b 80 3d e1 5c 94 bd a0 82 83 3b a5 85 10 3c
       0.06267456 -0.07244278 0.0040133744 0.008820926
0000c0 34 25 f1 bc 26 ec 3b bd 32 d1 19 3c 03 43 4f bd
       -0.029436685 -0.045879506 0.009388255 -0.050601017
0000d0 fb 9e 8f bd 48 7b 45 bd 89 80 40 bd 58 54 2d 3c
       -0.07012745 -0.048213273 -0.04699758 0.010579191
0000e0 b5 87 7f bd 18 b9 06 3d ac 9e 30 bd 9a bb 35 bd
       -0.06238528 0.032891363 -0.04312007 -0.044368364
0000f0 58 c1 e0 3c cc 81 27 3c 89 4c 5d 3d 97 12 ba 3c
       0.027435943 0.010223817 0.054028068 0.022713942
000100 d4 86 11 bc 27 62 21 bd b5 b3 86 3c 65 65 88 bd
       -0.008882243 -0.039400246 0.016443113 -0.066599645
000110 0f 38 24 3c 37 00 90 3d 69 bb fe 3d 10 e3 b6 bc
       0.010023131 0.07031291 0.124380894 -0.022325069
000120 ef 4e 24 bd 0b 50 d4 bc 63 6f a4 3d 12 1d 2e 3d
       -0.04011434 -0.025917074 0.08029058 0.042508192
000130 87 b2 a3 bc e2 01 1b 3d 22 62 00 bd 9c 80 7e bc
       -0.01998259 0.037843592 -0.031343587 -0.015533593
000140 b4 5f 78 3d 18 36 cf bb 37 74 7b bd b0 81 b9 3c
       0.060638145 -0.006323587 -0.061390128 0.022644848
000150 e6 a0 c0 bc e9 5b 6f 3d e6 2e 99 3c 44 cb 88 bc
       -0.023514222 0.05843726 0.01869912 -0.016698487
000160 c6 98 7a 3d 6c 43 e5 bc 97 98 64 bd 60 25 d4 3c
       0.061180852 -0.02798625 -0.055809584 0.025896728
000170 ac d7 d8 bb b7 6c 0b bd 0c f8 88 bd 75 ee 26 bd
       -0.006617507 -0.034039225 -0.06687936 -0.040754754
000180 1a 97 2d 3c e1 3f 76 3c 55 4c a8 bd e8 3e 82 bc
       0.010595107 0.015029878 -0.08217684 -0.015899137
000190 2c 3c de bd 61 ea d5 bd 11 05 91 bd 7c 55 fb bc
       -0.108513206 -0.10445095 -0.070810445 -0.03068041
0001a0 cd c8 26 bd 8b 92 78 3c 26 34 34 bd 1a 57 a8 bc
       -0.040718842 0.015171657 -0.043995045 -0.020549346
0001b0 4c d2 bb bc eb 40 16 3d 5b 9d 79 bd fb 49 d2 bd
       -0.022927426 0.036683004 -0.06094108 -0.10268017
0001c0 6f 7c 8b 3d 29 92 09 3d d6 2f a1 bb 15 ae c3 bd
       0.06810843 0.033586655 -0.0049190326 -0.09554688
0001d0 a5 53 e5 3d fc c9 cb 3c f8 ed ba bc b1 df 61 3c
       0.111975946 0.024876587 -0.02281855 0.013786242
0001e0 cb 54 c1 3c 4c 9f 98 bc e2 65 5d 3d c3 56 61 3d
       0.023600003 -0.018630646 0.05405224 0.055014383
0001f0 dc cc 87 3b cf 47 2e 3d 45 bc 36 bc 49 41 fd 3c
       0.004144294 0.04254895 -0.011153285 0.03091492
000200 27 8c 0a be fc 40 5f ba d3 ed 28 3d 2d 99 29 bd
       -0.13530026 -0.00085164583 0.04124243 -0.041405845
000210 db 05 78 bd 08 07 c5 3c 20 17 20 bd 02 b1 78 3d
       -0.06055246 0.024051204 -0.039084554 0.060715683
000220 76 c6 86 3d 3d 1d cf 3b 16 f8 af 3d 37 11 60 3d
       0.06580822 0.006320624 0.085922405 0.054703917
000230 47 38 e6 3c 83 23 e3 bc a0 5c e5 bd 55 70 6f 3b
       0.028103007 -0.027726894 -0.111993074 0.003653546
000240 9a 0c 36 bd ed 09 25 bd 21 12 38 bd 8d 51 5a bc
       -0.04444561 -0.04029267 -0.044939164 -0.013325107
000250 96 4a 60 bd f9 17 30 bc 49 a3 81 bd be 6f be bc
       -0.05475863 -0.010747903 -0.06329972 -0.023246642
000260 ac 00 82 bd 66 0f b9 bc 49 b3 f3 bb 9f 0f 2d bd
       -0.063477844 -0.02259035 -0.007437144 -0.042251226
000270 a7 2c ce 3c b4 6c 7e 3d 59 f3 b3 bc 9d 24 b3 3c
       0.025167776 0.062115386 -0.021966623 0.021868045
000280 ef 76 1a bc e9 1f 3c bd e6 9b 9e 3c 84 fb 43 3d
       -0.00942777 -0.04592887 0.019361448 0.047847286
000290 e5 12 cb bc 05 bf 95 bc 04 6d ab bd 2b de 27 bd
       -0.024789283 -0.018279562 -0.083704025 -0.04098336
0002a0 c3 ff 8a 3d 41 a4 57 3d c0 eb b4 bd 84 6c 94 3c
       0.06787064 0.05264688 -0.08834028 0.01811815
0002b0 fe 8c f0 3c 29 18 5c bc 3e b5 ad bd 00 91 14 bc
       0.029364105 -0.013433495 -0.08481835 -0.009067774
0002c0 10 6b 49 bd e0 a1 05 bd ac cb 58 3d a3 e7 85 bc
       -0.04917437 -0.03262508 0.05292861 -0.016345805
0002d0 fa 6d ff bc 00 2f cf 3c 58 d4 92 bc 97 6f 23 bd
       -0.03118037 0.025290966 -0.017923519 -0.039901342
0002e0 ea 45 42 bc ef 99 b2 3b f3 14 76 bd 2f d5 83 bd
       -0.011857489 0.005450479 -0.060078572 -0.06437146
0002f0 96 bb 97 3c e5 48 17 bd f5 f8 14 b9 8d a7 63 bd
       0.018522065 -0.036934752 -0.00014207124 -0.05557971
000300 ae 6f 1f 3d 29 6b 3a bd 66 c4 9c 3c 03 cf 80 bd
       0.038924865 -0.045512352 0.019136619 -0.06289484
000310 d3 f3 4d bd df f2 0b 3d f7 6f 1b 3d 34 9a 9e bd
       -0.050281357 0.034167167 0.037948575 -0.07744256
000320 46 31 3e bd a5 7f 72 bd e2 db 75 bd c4 cb a3 3c
       -0.04643371 -0.059203763 -0.06002415 0.019994624
000330 d2 e3 a9 3d f2 a5 1f bc ac ef 21 bc e3 7a 36 3c
       0.082954064 -0.009744154 -0.009883802 0.011137697
000340 8d 46 06 3d 8f 8f 47 bd 95 7c c4 bc c5 14 a5 3b
       0.032782126 -0.048720893 -0.023985187 0.0050378763
000350 b8 ff 15 bc 5f d5 9b 3d ed 7b 7c bc 65 72 d4 bc
       -0.009155206 0.07609057 -0.015410406 -0.025933454
000360 31 99 44 bd 0f 63 6b bb 22 44 ff 3c 38 d8 6d 3b
       -0.047997657 -0.0035917198 0.031160418 0.0036292206
000370 a0 f8 3e bd 13 27 5d 3a 72 49 ac 3c 19 97 12 3d
       -0.046623826 0.00084363035 0.021031115 0.03578863
000380 fd 13 c0 3c ae b4 dd bc 28 4d f7 39 74 2b 85 3c
       0.023447031 -0.027063694 0.00047168997 0.016256072
000390 15 71 b8 3b c3 b0 83 bc 8f 6b ad bb 62 19 19 bd
       0.005628715 -0.016075497 -0.005292363 -0.037377723
0003a0 4b b0 44 3d f6 67 a9 3d 5b 91 81 bd e5 64 bd 3c
       0.04801969 0.08271782 -0.063265525 0.0231194
0003b0 c6 f9 7b bd f0 46 a1 bc cd 56 d6 3c 7d a9 3d bd
       -0.0615175 -0.019687146 0.026164437 -0.046304215
0003c0 18 24 f3 bc 49 0a 04 3d e0 c7 2b bd 16 7a 7a 3c
       -0.029680297 0.03223637 -0.041938663 0.015287897
0003d0 5d 2a 69 3d f4 b5 1d bc 04 1d 54 bb f7 70 aa bd
       0.056925166 -0.009625901 -0.0032365927 -0.083223276
0003e0 a3 1b ab bd e3 66 80 3d 99 ff 32 3d ac 04 cc 3c
       -0.08354881 0.06269624 0.04370079 0.024904571
0003f0 19 78 9f bd f0 b3 4e bd aa 74 1e bd b1 96 6a bd
       -0.07786579 -0.05046457 -0.03868548 -0.057272617

temporal_block.weight_hh_l0 f4 [384, 128]
000000 37 99 2e 3b 56 1f 24 bc ad d8 04 bc 81 06 4c 3d
       0.0026641616 -0.010017237 -0.0081083 0.04981089
000010 28 fd 10 bc cf 3b 15 bc e4 da d2 3c a1 7f 8f bb
       -0.00884942 -0.009108498 0.02573914 -0.004379228
000020 5a 8e 76 bc 36 8a 19 3c 50 7a 42 bb 17 36 14 3c
       -0.015048588 0.009371331 -0.0029674955 0.009046099
000030 bd 20 ba bb 7a 12 52 3c 89 7f 19 bc 87 75 ab bc
       -0.0056801722 0.012821788 -0.009368786 -0.020930065
000040 72 1e a6 bb f7 2b 11 3c 81 8d 8c bb 10 be b8 bb
       -0.0050695473 0.00886058 -0.0042893295 -0.0056378916
000050 cc ae 07 bb 9f ca de ba c4 8d cf bb 45 cb 7f bc
       -0.0020703552 -0.0016997642 -0.0063340385 -0.015612428
000060 be ee c9 3b 7f bd 2e b9 c6 01 ac 38 58 bb 19 3d
       0.0061624935 -0.00016664526 8.2019294e-05 0.03753218
000070 2f 72 07 bb 3e 30 07 bb b7 04 2d 3d b4 ac f1 bc
       -0.0020667424 -0.002062812 0.042240825 -0.029501297
000080 b6 c0 43 3c ae 59 e1 3c 5a 43 eb bb 00 39 a0 b8
       0.011947801 0.027508583 -0.00717966 -7.6400116e-05
000090 4b 8b f3 3b 36 19 4e 3b d4 90 90 3b 18 f6 96 39
       0.0074323765 0.0031448132 0.004411796 0.00028793584
0000a0 99 20 99 bc 6f 70 a7 bb 02 02 a8 bc 64 f9 2a 3c
       -0.018692302 -0.0051098387 -0.02050877 0.010435436
0000b0 e6 d1 20 bb 16 a0 0a 3a 6e 96 9e 3c 21 a7 58 bd
       -0.0024539172 0.0005288137 0.01935884 -0.05289376
0000c0 11 7f 84 bc b1 31 ba bb ed 02 33 3b db 54 5c bb
       -0.016173871 -0.005682193 0.0027314976 -0.0033619914
0000d0 4c 0c 34 3c 22 ee 71 3b 28 e3 98 ba 68 a2 48 bb
       0.01098926 0.003691562 -0.0011664378 -0.003061438
0000e0 a1 ec 44 bc 0d 21 35 bc 02 4d a6 3b 35 11 be bb
       -0.012019307 -0.011055243 0.005075098 -0.005800391
0000f0 fb 8a 9f bb 40 11 10 3c 3b f2 57 bb 95 46 07 3b
       -0.0048688627 0.008793175 -0.0032950777 0.0020641435
000100 de b1 80 bc b1 39 0f bd d7 32 8a bb 90 8d af 3b
       -0.015709814 -0.03496713 -0.0042174864 0.0053574517
000110 a5 6c 53 bd 01 ae c7 3b f0 be e7 bb 4e 7f 01 bc
       -0.051617283 0.006093741 -0.007072322 -0.007903887
000120 0c 1a 0c bc 33 57 46 bc 8b 9f ab bb ad 7c a3 3b
       -0.008551132 -0.012105751 -0.005237525 0.0049892277
000130 d7 ef 0f 3d 3f f9 e4 3c 2f 87 37 3c 51 ad 4b 3c
       0.03514084 0.027950881 0.011201664 0.012431459
000140 5a d1 80 3c 7c 2f 40 3c f8 73 b4 3b c0 97 b5 bc
       0.015724827 0.011730071 0.0055069886 -0.022167087
000150 bb 61 e1 bc 5a c0 24 3b 68 00 cd 3b 88 82 85 3c
       -0.027512422 0.0025139065 0.006256152 0.016297594
000160 11 88 b7 ba 19 e7 73 3c 0f e0 0a bc 6d 6a 1d 3d
       -0.0014002343 0.014886641 -0.008476271 0.038431574
000170 b3 33 1b 3c a3 70 51 bd 58 b0 62 bb 21 98 32 3b
       0.009472775 -0.05113281 -0.0034589972 0.002725132
000180 b1 6a 21 bc 60 3d 66 bc c2 7c c1 3b 87 31 ab bb
       -0.009852097 -0.014052719 0.005904765 -0.00522441
000190 41 1f b3 bb d8 0a 6c 3c 65 cf 08 bb 66 6c 5a 3b
       -0.0054663722 0.014406882 -0.002087557 0.003332877
0001a0 69 71 d3 ba a4 36 b0 3b df a6 d1 3b e8 4c c8 3c
       -0.0016131821 0.0053776074 0.0063980664 0.024450734
0001b0 5c 63 8d bb fb 81 11 3c c5 b1 57 3b bc 97 06 3b
       -0.004314823 0.008881087 0.0032912355 0.0020537218
0001c0 66 fc 80 3b 27 be 3e bb d7 4e 0c bc 31 3c 5f 3c
       0.0039363382 -0.002910504 -0.008563719 0.013625191
0001d0 53 e7 dc bc 00 37 d3 bc 9d 52 0c bc a6 db 5b ba
       -0.026965773 -0.025783062 -0.008564618 -0.0008386917
0001e0 5b 38 1f 3c b2 4e 4e 39 f5 23 c9 3b e8 46 1d 3b
       0.009718026 0.00019675007 0.0061383196 0.0023998562
0001f0 00 d9 e3 39 94 6f 60 ba 1e 92 04 3c 58 fa 42 bc
       0.00043458492 -0.00085615483 0.008091478 -0.011900507
000200 77 39 38 bb d3 9e 6a bd ae 41 97 3b cf a3 5b bd
       -0.0028110424 -0.057280373 0.004615984 -0.053623017
000210 bc 0b 4f bb 4e 67 92 bc 23 7f 34 bd d5 2f 1a 3c
       -0.0031592688 -0.017871525 -0.04406656 0.009410818
000220 3c ac 69 3a 5a b3 06 3d e9 5e 81 bc 29 5c 9a 3c
       0.00089139096 0.032885887 -0.015792327 0.018842774
000230 54 3c 7e bc 73 c0 01 3d 2d 11 52 39 fe da b8 3c
       -0.015517313 0.031677675 0.00020033559 0.022565361
000240 fb 7d 37 bb d6 e1 77 bd 0b 70 4e bc 45 68 81 ba
       -0.0027998674 -0.06051811 -0.012599955 -0.0009872994
000250 1f 3d c0 3c 28 0b df ba 3f fe 3d 3d 2b 69 68 3b
       0.023466645 -0.0017016875 0.046385046 0.0035463076
000260 45 d1 86 bc b3 92 e9 3c 27 59 4f 3b a2 e7 2e bd
       -0.01645721 0.028512334 0.0031638832 -0.04270137
000270 35 35 77 3b f5 ff 6a 3c 74 4a 16 3d c1 16 2f b9
       0.0037720923 0.0143432515 0.036692098 -0.00016697777
000280 f0 97 92 3c ac 6b 9c bb 4d 7b 90 bb 2a 5c f8 38
       0.017894715 -0.0047735777 -0.00440923 0.000118427284
000290 84 cc 3b 3c 2e d6 3c 3d aa 5a f1 bb f5 47 67 3b
       0.011462335 0.046102695 -0.0073655443 0.0035290692
0002a0 fa 6a 40 3d 2b e8 13 bb dd e2 2a bd 74 c2 bc bc
       0.04697702 -0.0022568803 -0.04172026 -0.023041941
0002b0 70 97 26 ba 7a 16 7b 3c 96 2a 50 3c ef 90 3e 3d
       -0.00063549634 0.015325183 0.012705466 0.04652494
0002c0 64 16 3e bd db ac 8b 3c 44 37 77 bc 2d b9 27 bd
       -0.046408072 0.017050197 -0.01508886 -0.04094808
0002d0 3f 5c bd bc 12 3c 7e ba 33 c6 aa 3c 9f 83 f6 3c
       -0.023115275 -0.0009698282 0.020846462 0.030092059
0002e0 18 22 83 3b ab 64 f4 bc 50 ef db 3c 09 2d 08 3d
       0.004001867 -0.029833158 0.026847512 0.033246074
0002f0 de 05 0f bc 1d f0 09 bc 4f 06 75 bc cb c6 66 3c
       -0.008729426 -0.008419064 -0.014955117 0.014085482
000300 05 e7 4f 3c 15 f6 8d 3c 23 5a 61 3b 64 69 92 3a
       0.012689357 0.017329255 0.0034386 0.0011170325
000310 2f 75 34 3d 2e ee 91 3c 11 1d 19 bd ff 6c 26 3d
       0.044057067 0.017813768 -0.037381236 0.04063129
000320 5d 22 10 3d 5b 48 d9 3c 4e 92 05 3d 91 f6 85 3c
       0.03518902 0.02652376 0.03261023 0.016352924
000330 a5 d9 e2 bb cb 62 33 bd e6 9a 08 3c 54 00 93 bc
       -0.006922918 -0.04379539 0.008337712 -0.017944492
000340 80 d1 2f bd a1 45 07 bc 8d 00 01 3d 68 2a 40 bd
       -0.042924404 -0.008256347 0.031494666 -0.04691544
000350 0b ce c9 bc 04 07 16 ba 09 fd 9d bc 30 98 53 3c
       -0.024634382 -0.00057230913 -0.019285696 0.012914702
000360 cf 60 79 bc 29 5a 28 bd 28 85 b2 3c 86 86 4d 3a
       -0.015220835 -0.04110161 0.02179201 0.0007840175
000370 8f 6e 75 3c 85 ab 6d 3b 83 e6 c9 3b 2f 0c a6 bc
       0.0149799725 0.0036265564 0.0061615123 -0.020269481
000380 47 20 72 3b 2f 6d dd bc 37 ca 6d 3c c0 c5 c5 3c
       0.0036945508 -0.027029602 0.014513544 0.024142146
000390 1f 83 de bc 8e 64 91 bc e6 09 f8 3c 58 22 b9 bb
       -0.027162133 -0.017748144 0.030278157 -0.005649846
0003a0 88 7a 40 3c a3 33 b3 ba 5d eb 72 bb e6 a2 c5 3a
       0.011747964 -0.0013672005 -0.0037066557 0.0015078455
0003b0 15 14 e4 3c dc a1 af bc 45 d4 9c 3b 0f 02 8c 3c
       0.027841607 -0.021439485 0.0047860467 0.017090825
0003c0 f9 a9 2d bc 57 03 64 bc 9d 7b 13 bd ec 92 82 3c
       -0.010599607 -0.013916812 -0.03600656 0.015939198
0003d0 db a6 88 3c ea d3 ed 3b 2e f6 7a bc 07 83 81 3c
       0.016681125 0.007257928 -0.015317483 0.015809549
0003e0 f6 d5 8a 3b cf bb b9 ba 96 7f 50 3c 5c 1e 81 bc
       0.004236932 -0.0014170351 0.012725731 -0.015761547
0003f0 83 2c 2f bd c4 1a ba bc dc 39 71 bc b7 c2 e1 3b
       -0.04276706 -0.022717841 -0.014723267 0.006889667

temporal_block.bias_ih_l0 f4 [384]
000000 11 9d e3 bc c7 7e 33 bd 6b 3e 98 3d 38 d7 94 b9
       -0.027784856 -0.043822076 0.0743378 -0.0002838911
000010 b0 59 44 bd 3a 05 88 3d d0 10 6e bd f0 0f 4f bb
       -0.047937095 0.06641622 -0.058121502 -0.0031595193
000020 6e 14 ee 3b d0 ce 3b bd d8 a1 cf 3b 06 97 74 3c
       0.007265619 -0.04585153 0.006336432 0.014928585
000030 0f bd 9f bc bd 6f 15 3d c0 92 83 3d 93 a9 26 3c
       -0.01949933 0.036483515 0.06424475 0.010172266
000040 4b a4 48 3c f3 fc 89 3d 39 b1 5c 3d 85 a4 9b bd
       0.012246202 0.06737699 0.05387995 -0.07599739
000050 38 6c 72 3d a1 c9 c0 3c aa 9b 8e bc 51 0f 2a 3d
       0.059185237 0.023533644 -0.01740821 0.041518513
000060 92 10 48 3d 58 eb f0 bc 6d bc 99 bc 75 9e ac bd
       0.048843928 -0.029409096 -0.018766606 -0.08428661
000070 4f 91 3b bd d3 b5 0d bd 62 84 4c ba 9e 64 29 bd
       -0.045792874 -0.03459723 -0.0007801709 -0.04135572
000080 39 7a aa bd 5a 2a 85 3d 0c 94 57 bd 24 8d 30 bd
       -0.08324093 0.065022185 -0.052631423 -0.043103352
000090 62 87 77 3d 72 a9 be 3c 46 29 c9 3c 64 50 ad bd
       0.060431845 0.023274157 0.024555814 -0.08462599
0000a0 76 05 aa bc d8 e4 1a 3c cd 11 3f bd 67 0e 36 bd
       -0.020754557 0.009453975 -0.046647836 -0.04444733
0000b0 cd 10 b9 bd e0 78 2e 3b 9d 6d e8 3d 05 05 87 bb
       -0.090364076 0.002662234 0.11349032 -0.0041204714
0000c0 cd 36 d3 3b 6d c6 5a bd 20 d6 16 3d c4 90 69 3c
       0.0064457417 -0.05341189 0.0368253 0.014255706
0000d0 30 2f 01 bd b7 af 2e 3b e2 4d 81 bd a2 37 a4 3d
       -0.031539142 0.0026655027 -0.06313683 0.080184236
0000e0 9b 1c fb bc f3 0f f9 3c 48 23 94 3c 76 87 5f 3c
       -0.030653289 0.030403113 0.01808323 0.013643136
0000f0 d4 0a a8 bd 33 b4 67 bd 3c 21 2b 3b 88 e6 bf 3c
       -0.0820519 -0.056568336 0.0026112339 0.023425356
000100 60 21 1f 3d b9 59 76 3c cd 57 c8 bc d9 77 a6 3d
       0.03885019 0.01503604 -0.02445593 0.08128328
000110 99 60 00 3d 35 bf 0e bc 29 6c 54 3d c1 a5 ad 3d
       0.031342123 -0.0087125795 0.051860962 0.08478881
000120 76 9b 5b bc dc 32 6c 3d 99 ce 23 3b 00 a8 7f bc
       -0.013403764 0.05766569 0.0024994968 -0.015604019
000130 5b 16 d7 ba 8a b7 6a 3c ec 46 a2 bd 2c 8c b6 bb
       -0.0016409861 0.014325986 -0.079236835 -0.005570909
000140 38 eb b6 3c 4d f9 ec bb 3d 87 54 3d 77 aa 56 bc
       0.022328958 -0.0072318674 0.051886786 -0.013102165
000150 58 14 7b 3d 04 8e fb b9 42 d7 66 bd 5b 2a a6 bb
       0.0612987 -0.0004798026 -0.05635763 -0.005070967
000160 15 ba 9c 3d cf b0 b2 3d 76 84 15 3c f0 52 33 bb
       0.0765268 0.0872513 0.009125819 -0.0027362667
000170 ad a7 64 3b 06 d4 20 bc a3 65 33 bd 64 f4 9a 3c
       0.0034889982 -0.009816175 -0.0437981 0.018915363
000180 46 65 b8 3c e6 df da bc c7 14 06 3d 73 f8 a5 bc
       0.022509228 -0.026718091 0.03273466 -0.020260071
000190 25 aa 60 bc e8 0d de 3c c5 aa 63 3d 5b b7 49 bd
       -0.013712441 0.02710624 0.05558278 -0.049247127
0001a0 97 84 55 3b 48 04 91 3c f6 ce 98 bd 01 cc e4 3c
       0.003258025 0.017702237 -0.0746135 0.027929308
0001b0 3b 75 f1 3c 7b c7 d1 3d 39 19 0c 3d 13 87 1c bc
       0.029474845 0.10243126 0.03420374 -0.009553689
0001c0 b0 4a 6a 3d 55 4e 1f bd 73 5f 1d 3c a8 b8 11 3c
       0.057200134 -0.038893063 0.009605276 0.008894123
0001d0 5f 4d 57 bd bb 07 16 3d 81 77 2b bd 6a 9a f1 bb
       -0.05256402 0.036628466 -0.041862015 -0.007373144
0001e0 9b 87 3e 3b d2 f9 94 bc a0 6d 57 bd 89 f2 7d bd
       0.0029072526 -0.01818553 -0.05259478 -0.061998878
0001f0 b8 73 9b 3d d5 9f a0 3c 09 4e a8 3c ca 28 f3 3c
       0.07590431 0.019607464 0.020545023 0.029682536
000200 dc 84 8d bd bb 30 c6 3c 82 6c ff bd 89 e3 31 3d
       -0.069101065 0.024193158 -0.12471868 0.043429885
000210 76 88 88 bd 06 71 2f bd 21 9d 90 bd c1 21 b4 bd
       -0.06666653 -0.042832397 -0.0706122 -0.087955005
000220 bf e6 17 be 9e 89 14 be ad 8d 87 be bb 36 89 bd
       -0.14834116 -0.14505622 -0.26475278 -0.06699892
000230 5e a2 14 be af 72 a9 bd fe aa 20 be c4 1c 98 bd
       -0.14515063 -0.08273827 -0.15690228 -0.074273616
000240 f4 f0 f7 bd 26 21 db 3c 97 d9 4d be c2 34 0d be
       -0.12106505 0.026749205 -0.20102535 -0.13789657
000250 2d 2a 85 bd 8b d8 14 bd e2 ec 18 bd bc f5 37 3d
       -0.06502185 -0.036339324 -0.037335284 0.044912085
000260 df 41 2a be 4d 1a 54 bd c2 5b 6e be 2e ea 0d 3d
       -0.1662669 -0.051782895 -0.2327719 0.03464716
000270 7d 8a 97 3c 2d e2 21 be 32 d6 8e 3c e7 01 39 bd
       0.018498654 -0.15808935 0.01743612 -0.04516783
000280 d3 0c eb bd 15 62 6a bd af 37 11 be 36 13 16 be
       -0.114770554 -0.057222445 -0.14181398 -0.14655766
000290 63 46 31 be ab 44 8c bd bf 05 0c bd cc 3a 66 be
       -0.17312007 -0.06849035 -0.034185167 -0.22483367
0002a0 69 3b 2b bd de 85 64 be 74 c9 4e bd 10 b6 ed 3c
       -0.041804705 -0.22316691 -0.05048509 0.029017478
0002b0 78 55 44 be 62 79 45 be a2 69 ee 3c ab e1 94 bc
       -0.19173229 -0.19284585 0.029103104 -0.018174013
0002c0 54 38 c4 bc d3 70 69 be 28 bf 57 be d2 a4 85 bd
       -0.02395264 -0.22796945 -0.21069014 -0.065255776
0002d0 ca 52 8d bd da d3 21 be 29 fd a3 bd bf a4 19 be
       -0.069005564 -0.15803471 -0.08007271 -0.15004252
0002e0 53 82 a4 bd 24 4a 98 be 57 75 06 be b4 9c 07 be
       -0.0803267 -0.29744065 -0.13130699 -0.13243371
0002f0 8a 92 63 be 30 a9 04 be 55 9e 59 bd db 66 6d be
       -0.22223869 -0.12955165 -0.053129513 -0.23183767
000300 67 cc 34 be 61 b5 fb bc d1 fe 4f bd 95 e5 9f bd
       -0.17656098 -0.030726137 -0.05078012 -0.07807461
000310 56 e4 7a bd 76 77 56 be 36 15 9f bd fb c1 16 be
       -0.061252914 -0.20944008 -0.077677175 -0.14722435
000320 05 46 8a 3c 2e 07 2d be e4 05 40 be 2a ad 99 bd
       0.016879091 -0.1689727 -0.18752247 -0.075037315
000330 4e f5 08 bd d3 c8 62 bd c8 a6 06 be 61 5a ac bc
       -0.033437066 -0.055367302 -0.1314956 -0.02103919
000340 79 8a fc bd 6c b0 b6 bd c0 67 d7 bc 7a c4 1c be
       -0.12331099 -0.089203686 -0.026294589 -0.15309325
000350 33 38 d1 bd 87 7f 88 bd bd 84 49 be ce bf db bd
       -0.10215797 -0.06664949 -0.19679542 -0.10729943
000360 76 02 39 be ed 18 99 bc f6 ea d0 bd 41 78 0e be
       -0.18067345 -0.018688643 -0.10201065 -0.1391306
000370 0e d0 93 bd c4 e1 3b bd 2f a9 02 be a8 34 2e be
       -0.07217418 -0.045869604 -0.12759851 -0.17012274
000380 31 34 d3 bd 27 76 1a 3d 48 88 0f be 09 9a 26 be
       -0.10312689 0.037710335 -0.14016831 -0.16269697
000390 0c 89 3e be cf f1 76 be d5 bc 1b 3d 67 d4 27 bd
       -0.18606967 -0.2411568 0.03802188 -0.040974047
0003a0 49 75 9e bd 08 39 04 be 61 dd 03 be be 3f 20 bd
       -0.07737214 -0.1291238 -0.12877418 -0.03912329
0003b0 5f 81 19 bd 57 78 09 3d c1 02 5f bb 35 7f 1d bd
       -0.037476894 0.03356203 -0.003402874 -0.038451392
0003c0 b3 0b 8a be 34 92 32 be 50 be 69 be 73 aa 02 3d
       -0.2696205 -0.17438585 -0.22826505 0.031900834
0003d0 97 3f 13 3d 50 14 fb bd 80 4d db bd b5 74 84 be
       0.035949316 -0.12259734 -0.10708141 -0.2587029
0003e0 13 47 05 be 1d 0f 2d be 46 45 86 bd 1a 3f 4e be
       -0.13015394 -0.16900297 -0.065561816 -0.20141259
0003f0 09 c7 f5 bd 02 74 1c be 98 e7 3f be 37 44 1f bd
       -0.120008536 -0.15278628 -0.1874069 -0.038883414

temporal_block.bias_hh_l0 f4 [384]
000000 cf 27 24 bd 88 bf 8a bd 9e fb c4 bc c0 47 0b bd
       -0.040077027 -0.06774813 -0.024045762 -0.034003973
000010 f2 0e 3c bd 50 9a 57 3d 96 28 6d 3d 83 d4 83 bc
       -0.04591269 0.0526374 0.057900034 -0.016092544
000020 a6 6e 8b bd 0c f8 59 3d 32 5f 6e 3c 39 1d 1f 3d
       -0.06808214 0.05321507 0.0145490635 0.03884623
000030 92 1e 3a 3d 9f 40 49 bc 95 be 29 bd f7 dd eb bc
       0.04543931 -0.012283473 -0.04144152 -0.028792365
000040 71 20 21 bd 1b 7f 17 bd 74 6e 37 3d 3f 4a bd bd
       -0.03933758 -0.03698645 0.04478307 -0.09242677
000050 f4 55 50 3d a3 0b 0b 3d a0 40 80 bd dd 56 7e bd
       0.05086322 0.033946645 -0.06262326 -0.062094558
000060 11 9c 93 3d e8 ff af bd aa 5a a8 3d 4e 23 2a 3d
       0.07207502 -0.08593732 0.08220418 0.041537575
000070 fb a8 9d bd b5 c7 a1 bd f2 27 23 3b 8a b6 81 3c
       -0.07698246 -0.07899419 0.0024895635 0.015834112
000080 a0 41 5c bd 15 17 41 3d 24 01 50 3d 79 a4 4d 3d
       -0.053773522 0.047141153 0.050782338 0.05020568
000090 0a 05 b4 bb 65 69 34 bc b1 dc f1 3c 6e d0 84 bd
       -0.0054937648 -0.011011456 0.02952418 -0.06485067
0000a0 2e 29 62 3d d1 a2 55 3d 24 fd 49 bd 19 8d f3 bc
       0.055215053 0.052157227 -0.04931368 -0.029730367
0000b0 d4 6c d7 3c fb 6e b2 bc a3 52 88 3d b8 54 44 bd
       0.02629701 -0.021781435 0.06656387 -0.047932357
0000c0 90 a6 4a bd 92 bb 02 3a c2 b2 9c bd fa 42 ec bc
       -0.049475253 0.00049870566 -0.07651283 -0.02884053
0000d0 55 38 9f bc 93 c5 ae 3b bf 92 01 bc a7 3c 99 bc
       -0.01943604 0.0053336113 -0.007908522 -0.01870568
0000e0 25 7e 0f 3d 13 f1 4f 3c 4c 80 d1 3c c2 4d db bb
       0.03503241 0.012691754 0.025573872 -0.006692619
0000f0 ea d0 39 3c 1e 48 bd 3d 8f 9a f0 bc 0a a0 5f 3d
       0.011341313 0.09242271 -0.029370574 0.054595985
000100 34 2f 3c bd 47 91 8a bd d6 4f 3a bd a7 38 09 bd
       -0.045943454 -0.06765991 -0.045486294 -0.033501294
000110 bf 67 c8 3c 60 ab dc 3b ff 87 94 bd ca 78 ea bc
       0.024463532 0.0067342967 -0.07252502 -0.02862205
000120 3a 0d 17 3d f4 bc e4 bc 6c 95 22 3d 7e 73 14 3d
       0.03687785 -0.027922131 0.03969328 0.036242954
000130 0f 9d d1 bc 4f a3 18 3d 25 be 9f bd b9 c4 2b bc
       -0.025587587 0.03726512 -0.07799939 -0.010483914
000140 95 d1 82 3d b5 ac 4d 3d 04 dd 30 bc d9 54 d9 3d
       0.06387631 0.050213534 -0.010794882 0.106118865
000150 d7 05 57 3d e2 f7 52 3c 6e f7 17 bc e2 47 aa bd
       0.052495804 0.012876483 -0.0092753 -0.08314492
000160 7c 10 73 bd dc eb 55 3d bd 29 10 bd 20 15 68 3d
       -0.059341893 0.052226886 -0.035196055 0.05666077
000170 a3 e7 1d 3d 18 6d 76 3d c1 3e 20 3d ed ae 69 3d
       0.038550984 0.060162634 0.039122347 0.057051588
000180 0a 3e 8c 3c b9 a2 82 3c 15 d9 d0 bc 55 28 14 bd
       0.017119426 0.015946733 -0.025494138 -0.036171276
000190 71 1a cc bc 3a bf 4a 3c fc 13 36 bb 79 f7 df bc
       -0.024914952 0.0123746935 -0.0027782908 -0.027339684
0001a0 20 6e 4f 3b c5 da b8 bc 32 aa 91 bd 57 69 d3 3d
       0.0031651333 -0.022565255 -0.0711254 0.10322826
0001b0 fc e0 0b 3d fa c6 ee 3c 38 5b 6b 3d 7c 83 15 3d
       0.03415011 0.029147614 0.05746004 0.036502346
0001c0 96 0e 59 3d 9a 16 c4 3c b3 f3 1c 3d 36 d7 81 3d
       0.052992426 0.023936559 0.038318347 0.06339876
0001d0 91 2a 3f bd 95 f7 bb 3d c0 85 6d bd 65 0f a0 bb
       -0.046671454 0.09178082 -0.057988882 -0.0048846477
0001e0 9e cb 3d bd 91 7a d9 bc 3c d3 f4 bc d2 e5 92 bd
       -0.046336763 -0.026547702 -0.02988588 -0.07172741
0001f0 91 8e 35 bd 8b 2f ca 3c 5b 5b 1c bd 3e 94 97 bd
       -0.044325415 0.024680873 -0.03817306 -0.07401322
000200 9c 9f 77 bd 63 7c 1d 3d ee 64 11 be c5 44 1e bd
       -0.06045495 0.038448703 -0.14198658 -0.038639802
000210 78 2e b6 bd d3 f0 78 3c a9 73 ac 3b 5b a6 62 3c
       -0.08895582 0.015194136 0.005262811 0.013833608
000220 2d d1 3c be 85 af 11 be f1 cb 7d be 82 59 e9 bd
       -0.18439169 -0.14227112 -0.24784829 -0.113940254
000230 ce f5 68 be 0c 3c 1e be 8e 64 48 be 74 c5 be bd
       -0.22750017 -0.15452594 -0.19569609 -0.09315005
000240 2d 21 66 be 1c b6 04 3d 4b 2f 03 be f8 fc 14 be
       -0.22473593 0.032400236 -0.1281101 -0.14549625
000250 f5 20 2f be 9c 0e df 3c 0b 25 ea 3c 47 e8 40 3d
       -0.17102416 0.027228646 0.028582117 0.047096517
000260 90 40 22 be 9e c4 81 bd 0c b5 20 be da 23 04 bd
       -0.15844941 -0.0633633 -0.15694064 -0.032260753
000270 46 a0 10 bd 84 1f 5f be 0f bd b1 3c af 69 9b 3c
       -0.0353091 -0.21789366 0.021696595 0.018971292
000280 2d 49 02 be e4 1a 1d bd 6d d8 0c be 51 98 65 be
       -0.12723227 -0.038355723 -0.13754435 -0.22421385
000290 91 cb 2f be d2 44 19 bd 90 be 06 3c dc a5 70 be
       -0.17167498 -0.037419148 0.008224145 -0.2350077
0002a0 48 3f d3 bc fd ec 51 be a9 e1 11 bd 91 98 8d 3c
       -0.02578701 -0.2050056 -0.035615597 0.017284663
0002b0 b4 93 09 be 22 49 df bd 30 01 d8 bb 8b 34 df 3c
       -0.1343525 -0.10902621 -0.0065919384 0.027246734
0002c0 9b 1b 9e bd 65 6d 34 be f3 40 37 be 21 f6 91 bd
       -0.07720109 -0.17619856 -0.1789587 -0.071270235
0002d0 1d 99 7c bd 65 b5 1f be ca 0e 1f be 95 88 0e be
       -0.061669458 -0.1559654 -0.15532985 -0.1391929
0002e0 c4 48 08 be 76 6b 5b be a8 99 2b be 4e a2 09 be
       -0.13309008 -0.21427712 -0.16757834 -0.1344082
0002f0 17 ad 52 be 6e b7 e6 bd 67 84 0d bd 68 c9 29 be
       -0.20573841 -0.11265455 -0.034550097 -0.16580737
000300 a0 81 a7 bd e8 c0 1d bc 45 20 d6 bd ef 17 d4 bd
       -0.08179021 -0.009628512 -0.10455374 -0.103561275
000310 f5 57 8d bd 20 94 82 be bc 4b 05 be cd b2 dc bd
       -0.06901542 -0.25503635 -0.13017172 -0.10776291
000320 4a c1 03 bd f2 10 2e be cc 2c 4d be 3b db 0d be
       -0.032166757 -0.16998652 -0.2003662 -0.13853161
000330 90 c8 d8 bd 71 a0 cd bd 9f 9a 0a be 85 75 d3 bd
       -0.10585129 -0.100403674 -0.13535546 -0.103251494
000340 71 2d d7 bd f0 f5 30 bc 47 63 56 bd 3e 8b 0a be
       -0.10506714 -0.010800824 -0.052340772 -0.13529679
000350 8a fc a1 3c 78 2b ec bd 56 69 7a be 5d 5c 2e bd
       0.01977374 -0.115317285 -0.24454245 -0.042568553
000360 6d 52 17 be 47 42 3d 3d 6e 33 d5 bc 41 35 24 bd
       -0.14777537 0.046205785 -0.0260255 -0.04008985
000370 f7 94 8e bd 1e 5c db bd ed 16 1e be c0 10 db bd
       -0.069620065 -0.10710929 -0.15438433 -0.10696554
000380 03 71 e2 bd ab 5b 9b bd 5a 58 51 be 97 93 5c be
       -0.110567115 -0.07585844 -0.2044386 -0.21540676
000390 61 e9 46 be dd 21 55 be d4 62 f7 bb 65 3d c5 bd
       -0.19424964 -0.20813699 -0.007549623 -0.09630851
0003a0 1b 08 13 be 4c 22 07 be ad 59 eb bd 19 e2 ce 3c
       -0.1435856 -0.13196677 -0.11491714 0.025254296
0003b0 be c7 e5 bd 98 83 a8 bd 17 e1 00 bd 92 de 3e bd
       -0.112197384 -0.082282245 -0.031464662 -0.04659898
0003c0 20 a4 8b be 1f 21 4e be 35 d7 14 be 50 61 fd bc
       -0.27273655 -0.20129822 -0.1453522 -0.030930191
0003d0 f0 3e 29 bd 17 34 f0 b9 0c aa 0a bd 44 31 5b be
       -0.041319788 -0.00045815177 -0.033853576 -0.21405512
0003e0 5b c0 c7 bd 17 c9 2f be 5b dc 75 bd 70 27 4c be
       -0.09753486 -0.17166553 -0.0600246 -0.19936919
0003f0 c9 96 ce bd 48 37 cc bd 5b 25 65 be 15 b8 b3 bd
       -0.10087354 -0.099714816 -0.22377531 -0.08775345

temporal_block.weight_ih_l1 f4 [384, 128]
000000 49 b4 da 3b a9 c0 fc 3c d9 89 a6 3b 94 19 ac bb
       0.0066743237 0.030853586 0.0050823507 -0.0052520726
000010 e9 46 10 3b b7 e7 a4 3c 75 d3 33 3a 5e 6a 01 bc
       0.0022014922 0.020130021 0.00068598177 -0.007898895
000020 b2 f4 87 3b 26 1b 90 3c c8 22 c8 3b de 2e 85 3b
       0.004149043 0.01759107 0.006107662 0.004064425
000030 3b 62 cd 3b 7a bf 83 3b 55 b6 13 3b 5e 42 19 ba
       0.0062678135 0.0040206285 0.0022539098 -0.00058463763
000040 2a 98 1e 3c 7a 9d 04 bc 5b 97 1b ba 86 bb d1 ba
       0.009679833 -0.008094186 -0.00059353345 -0.0016001321
000050 4e 40 e1 b9 ec c9 8a 3b 0d bd 19 bd d0 9c b6 bc
       -0.00042963255 0.0042354967 -0.03753381 -0.02229157
000060 78 f0 8e 3c e8 3c 06 3a b1 9d c7 bb 19 34 2b 3d
       0.017448649 0.000512077 -0.0060917963 0.04179773
000070 69 7b d0 3b dc 47 21 bb a0 03 b4 3c f3 1f 91 bc
       0.006362368 -0.0024609482 0.021974385 -0.01771543
000080 07 22 25 3c d5 df 05 bc d5 3e cf bb 3e d2 90 3b
       0.0100789135 -0.0081710415 -0.006324629 0.004419594
000090 63 c0 3d 3b 01 e2 17 3b 99 e4 bd bc b5 23 79 bb
       0.0028953783 0.002317548 -0.023180293 -0.0038015668
0000a0 b5 e6 9d bc ec c9 b8 b9 69 62 78 bc c6 63 ab 3b
       -0.019275049 -0.00035245658 -0.015160182 0.0052304
0000b0 d5 66 32 bb 8b bd 1b 3b 82 04 09 3d ca 21 13 bd
       -0.0027221937 0.00237641 0.033451565 -0.035920896
0000c0 b2 f5 a9 bb 7b a1 a1 3b bd d4 00 ba 1f 28 00 3b
       -0.00518676 0.00493258 -0.0004914513 0.0019555164
0000d0 6b 00 8a bb 52 93 47 3b d8 59 69 bc ea d3 17 bc
       -0.0042114756 0.00304528 -0.014242612 -0.009266833
0000e0 6d 68 0d bb fb 13 28 3b f3 1b bf 3b ae b5 ed bb
       -0.0021577135 0.0025646675 0.005832189 -0.007254324
0000f0 22 bf c4 3a 3e 6f 62 3a 0e 77 a1 3b 68 41 14 3b
       0.0015010575 0.0008637792 0.0049275225 0.0022621993
000100 15 7f 0e 3c d5 1d 4a 3a e7 a7 0c 3c 8a 09 2f 3b
       0.008697291 0.0007710134 0.008584953 0.0026708567
000110 22 72 ac 3b a6 d7 52 3a 41 16 bd 3b ee 57 ee 3b
       0.005262629 0.00080429984 0.005770475 0.0072736656
000120 16 b6 01 ba cf 24 58 3c 4c 90 a7 ba 7e 28 54 39
       -0.00049480924 0.01319237 -0.0012784093 0.0002023298
000130 e1 fb d2 3c ce 79 a0 3c f4 78 52 3b 22 54 38 3c
       0.02575487 0.019589331 0.003211555 0.011250528
000140 00 d7 d8 3c 0b c6 2b 3b 33 3c 02 bc dc cf d0 ba
       0.026469707 0.0026210572 -0.007948923 -0.0015931088
000150 1f 2d 00 bd bf b8 8b 3b 49 7b 04 bc e9 b5 30 ba
       -0.03129303 0.004263967 -0.008086034 -0.0006740974
000160 6d 8c cf ba 1d 55 2d bc 69 f9 43 bb 73 11 32 bc
       -0.0015834697 -0.010579375 -0.0029903299 -0.010868418
000170 3e cb d0 bc fc 89 1b bd 6b f8 c4 3b ad 76 05 3b
       -0.025487538 -0.03797339 0.006011059 0.0020364926
000180 08 d3 9b bb 6f 5d 79 3a 3a 50 0d ba dd e5 92 3b
       -0.0047553815 0.0009512519 -0.0005390678 0.0044829682
000190 2c 69 96 bb d6 26 b1 b8 32 d2 13 3c d9 7b 14 3c
       -0.004590174 -8.4472515e-05 0.009022282 0.009062731
0001a0 76 2d 5d bb 12 79 c2 3b 42 48 c4 3b 0a 17 a8 3c
       -0.003374902 0.005934843 0.005990059 0.020518798
0001b0 7f 6f 42 3a 9c 78 69 3b 7e cd 77 3b 6e 7f 1d 3c
       0.0007417127 0.0035624867 0.0037811692 0.009612901
0001c0 52 e4 1f 3b ba 01 cc 3b 7e 76 fe 3a ee 1b 1e 3b
       0.0024397564 0.0062257918 0.0019413976 0.0024125534
0001d0 ec 1c 4e 3c 9b 11 b9 3c 27 77 14 bc fe 89 64 ba
       0.012580138 0.022591403 -0.009061611 -0.0008718072
0001e0 83 65 b9 3b 8c c1 c2 bb b9 4c 4d ba 5a d8 d6 bb
       0.005657853 -0.0059434827 -0.0007831562 -0.006556553
0001f0 50 4b 50 bc e0 93 29 bb 9a 9d b9 39 04 e5 a3 bc
       -0.012713268 -0.0025875494 0.00035403372 -0.020006664
000200 9f 6d 6e 3a a5 ed eb bc e9 be d9 ba c2 ed 84 3a
       0.00090953143 -0.028799841 -0.0016612682 0.0010141658
000210 63 d7 6c bc 32 41 3d 3d 31 51 59 bc 71 1e 71 3c
       -0.014455649 0.046204753 -0.013263986 0.01471673
000220 9a a5 d8 3b 3e 8e 14 3d 3f 79 6a 3c bb a9 ee bb
       0.006611538 0.036268465 0.014311134 -0.007283417
000230 8d 36 bb bc eb 28 e6 bc 35 1a 3c 3c cb d1 99 3c
       -0.02285316 -0.028095683 0.011480858 0.018776795
000240 4a b2 ee bb f7 7f 50 3d 1b 8d 2c bc f3 b2 fa 3b
       -0.0072844373 0.050903287 -0.010531689 0.007650727
000250 af 2f b8 3c 6a 78 63 3c 00 cc 17 bd 9a a6 25 bd
       0.022483675 0.013883689 -0.037059784 -0.040442087
000260 0c 4c 22 3d e2 2b 52 bd 05 67 e8 3b eb c2 81 3d
       0.039623305 -0.05131138 0.007092359 0.06336006
000270 4e 6f 71 bc cf 11 47 3b b7 a8 22 bc bf 7b a3 3c
       -0.01473601 0.0030375605 -0.00992792 0.019956468
000280 f6 89 09 3d 4b 10 a9 bc 97 12 56 bb e7 f0 a2 bc
       0.033578835 -0.020637652 -0.003266489 -0.019890262
000290 48 d4 a6 3b cd 61 31 3d 20 2c 2d 3c 1c 7e 99 3b
       0.005091224 0.04330616 0.010569602 0.004684223
0002a0 63 fd 3b bd 8b ad 29 3c c5 73 76 3c 3f 03 1a 3d
       -0.045895945 0.010356317 0.01504225 0.037600752
0002b0 65 78 3c 3b 1e ed 99 bc 98 fa 64 bb a9 c9 51 bd
       0.0028758284 -0.018789824 -0.0034939405 -0.05121771
0002c0 60 c0 75 3c e8 44 0b bc 3b 69 fc bb 08 c0 3b 39
       0.014999479 -0.008500315 -0.007702974 0.00017905247
0002d0 ec 01 6f bc d6 94 8c bb 8a be cc bc ab 8d 7d bd
       -0.014587861 -0.0042902036 -0.0249932 -0.061902683
0002e0 46 e5 c6 bc 39 1f e3 3c ad a0 6d 3b 8b b8 91 3c
       -0.024279248 0.027724849 0.00362591 0.017788192
0002f0 07 4c 8d bb 24 10 83 ba 6f 14 8d bc 51 ef c9 3c
       -0.0043120417 -0.0009999317 -0.017221658 0.024650248
000300 b0 e8 dd 3c 5a bc dd 3b 6e e7 b0 bc bf 8e 99 bb
       0.027088493 0.006766838 -0.02159473 -0.004686206
000310 20 a7 09 3d f3 46 87 bc 96 f1 4f bc 4d 3c 1d 3d
       0.03360665 -0.016513323 -0.012691876 0.038387585
000320 61 80 73 bd d4 f4 1d 3d 99 42 ef bc 5e a0 5e ba
       -0.059448604 0.038563564 -0.02920656 -0.00084925245
000330 a7 b3 b8 bb cb 90 b1 bc 25 44 2a bc 00 fe cd 3c
       -0.0056366506 -0.021675488 -0.0103922235 0.02514553
000340 96 8e 61 3c b1 5a d9 3c 10 87 b9 3c 4c 61 27 bd
       0.013766905 0.026532503 0.02264741 -0.040864274
000350 d6 bb d1 bc 93 6e 16 bd 72 da a3 bc da 2a 60 bc
       -0.025602262 -0.036726546 -0.020001624 -0.013682092
000360 4d e7 3a b9 a3 ae cd bc 99 99 c5 bb 0f 2c 13 bd
       -0.00017824509 -0.025107687 -0.006030273 -0.03593069
000370 9d ff cd bc 1c 0b 2c bd d8 95 5d 3c 8d 34 00 3d
       -0.0251463 -0.042002782 0.013524495 0.031300116
000380 c8 f5 80 3b ba f5 41 bc cc cf 68 3b 8e 52 cb bb
       0.0039355494 -0.011838371 0.0035524247 -0.0062049096
000390 7b 82 68 3c c6 92 50 3b 16 0a 9f 3c b4 31 2f 3d
       0.014191265 0.0031825765 0.019413989 0.04277201
0003a0 d7 6e 39 3b 30 1b 87 37 be 19 ed bb 7c 8f 65 bc
       0.0028294825 1.6105914e-05 -0.0072357347 -0.01401126
0003b0 d2 6b d6 bb d3 25 f8 3c 20 a5 ca bc 86 a2 f7 bb
       -0.006543615 0.030291473 -0.02473694 -0.007557216
0003c0 b8 e4 d2 bb 70 82 c4 ba 6a 37 b3 3c f4 7a e2 bb
       -0.006435957 -0.0014992487 0.02187701 -0.00691163
0003d0 27 69 e4 bc 87 1c be 3b 7a 07 6b bd f2 af b4 3c
       -0.027882172 0.0058017406 -0.057380177 0.022056554
0003e0 e0 b4 e5 ba 0e f4 08 bd a9 75 ff 3b 1a 1f 9f 3c
       -0.0017525218 -0.033435874 0.0077960086 0.01942401
0003f0 c5 dc ed 3c eb a0 b0 3b a6 5c 23 bb 3e 0e b1 3c
       0.029035935 0.0053902767 -0.002492705 0.021613237

temporal_block.weight_hh_l1 f4 [384, 128]
000000 80 ca b7 3b af 8d 9f bc 06 3f 93 3c 92 3f 8f b9
       0.0056088567 -0.01947674 0.017974388 -0.0002732245
000010 f2 47 06 3b 6e 89 ab 3b 79 37 92 bc dc 78 f1 bb
       0.002048966 0.0052348888 -0.017848717 -0.007369144
000020 69 4e 66 3c 4d d6 e6 bb 24 d8 54 bb 52 fa c6 bc
       0.01405678 -0.0070445896 -0.0032477463 -0.024289284
000030 34 f9 a3 3b 67 2e 9f b9 30 d7 b7 bb 55 0c 1b 3d
       0.0050040726 -0.00030361416 -0.005610369 0.037853558
000040 43 f2 28 3a 7d 45 1e 3b 8e ef da ba 6b e7 69 3b
       0.0006444791 0.0024150305 -0.0016703473 0.0035690914
000050 f9 28 08 bb 55 31 a5 3c 63 12 36 3b 61 17 9a bb
       -0.0020776375 0.020165125 0.0027781955 -0.004702494
000060 99 eb be 3c 82 a1 b6 bc 8b 3d b2 ba 20 bb 79 3c
       0.023305701 -0.02229381 -0.0013598663 0.015242368
000070 17 7d 06 bc 8a cc ee ba d4 22 c7 bc 50 fa d8 ba
       -0.008208535 -0.0018218916 -0.0243086 -0.0016554091
000080 a7 e0 1d 3c 15 0d a5 3a ea c9 79 b9 7a 72 7f ba
       0.009636081 0.00125924 -0.0002382171 -0.00097445364
000090 46 2d 12 bc 7e 62 b1 3a c7 76 b9 3b c5 51 d3 bc
       -0.008921927 0.0013533381 0.0056599113 -0.025795827
0000a0 1c c7 09 3c ab 68 0e 3c 11 90 ee bb 0b a6 21 3b
       0.008409288 0.008691947 -0.0072803576 0.002466562
0000b0 c2 c8 48 bc 8c 03 28 bb 08 5c 9c bc 4f b2 24 bc
       -0.012254896 -0.002563688 -0.019086853 -0.010052278
0000c0 f3 bb 51 3d 99 35 cc 3c 44 96 1b 3c a8 0b 7d bc
       0.051204633 0.024927901 0.009496275 -0.015444674
0000d0 56 10 11 3c ec 93 dc 3b b9 76 16 3c 65 c3 8e 3b
       0.008853992 0.006731501 0.009183579 0.004356789
0000e0 26 43 54 bd 71 74 ef 39 f2 13 9f 38 50 a4 1e 3c
       -0.05182185 0.00045672388 7.585426e-05 0.00968273
0000f0 07 51 77 ba 98 fc 34 bc c2 fb cd 3c 95 c3 ba 3c
       -0.0009434376 -0.011046551 0.025144462 0.022798339
000100 b4 d0 89 3b 37 d4 09 3c f4 e7 97 bb ac b0 da bc
       0.0042057876 0.008412412 -0.0046358053 -0.026695572
000110 04 c8 17 bc ba 6a 72 bc 96 b5 ff 3b 77 be e1 3c
       -0.009263996 -0.014795953 0.007803629 0.027556641
000120 38 2c 5e bb 8f b2 a0 bb 0c d1 3a bc 16 e9 93 3c
       -0.0033900868 -0.0049040983 -0.01140238 0.01805548
000130 12 48 aa 3a 23 fe 22 3b ba 6e 1c 3c dc a3 71 3c
       0.0012991449 0.0024870716 0.009547884 0.01474854
000140 e8 cd 80 3b 0a 42 91 bb d3 22 fb bc ac 5c ac 3b
       0.003930796 -0.0044329213 -0.030656254 0.005260071
000150 32 39 60 bc 7e 2c 8e 3b dc 7a 2a bb 8f 2b d1 ba
       -0.013685511 0.0043388 -0.0026013171 -0.0015958416
000160 98 e2 98 3b cd 78 44 bb 2a 2e 13 bc c3 1c a1 bc
       0.004665684 -0.002997923 -0.008983174 -0.019667035
000170 2c 34 9e bb ed e5 bb bc a6 d6 d0 39 4a 4d 08 3b
       -0.0048279967 -0.022936786 0.00039832777 0.002079802
000180 ae d7 9d ba 55 d4 03 bc 6d 4c b6 bc c8 a0 08 3c
       -0.0012042427 -0.008046229 -0.02225324 0.0083391145
000190 3c 16 d6 b9 9d df 03 3c 76 f5 8f 3b ce 18 10 bd
       -0.00040833827 0.008048919 0.004393275 -0.035179906
0001a0 5a 7e 48 bc cc c1 58 bc b9 99 3c bc 30 5f e7 3b
       -0.012237156 -0.0132297985 -0.01151126 0.007060908
0001b0 9f e0 48 bc 0a fc a8 bc e1 d0 0a bc 85 55 19 3c
       -0.012260585 -0.020627994 -0.008472652 0.009358768
0001c0 b2 de 3b 3b 99 4b 1d bb 88 21 76 bc 3b 31 a1 3a
       0.0028666672 -0.0024001359 -0.015022643 0.0012297997
0001d0 ac ed 47 37 c9 ab 50 ba 2f 4c f7 38 71 3c ca bb
       1.1916662e-05 -0.00079601683 0.00011792068 -0.006171756
0001e0 30 2d 05 ba c2 54 c3 ba fe 57 92 bc 98 ca 42 3d
       -0.0005080281 -0.0014902579 -0.017864224 0.04755649
0001f0 d5 db 49 3b 93 42 94 bb 23 6a ea bc db 5c d3 bc
       0.0030801196 -0.004524538 -0.028615063 -0.025801113
000200 97 97 cc 3c 7b e1 a7 bc 82 6c 1a 3d ec 42 db ba
       0.024974627 -0.02049326 0.037701137 -0.0016728318
000210 cf 57 01 3d 7f bb 11 bd 15 29 4f 3d 8c 70 bd 3b
       0.03157788 -0.0355792 0.05057629 0.005781239
000220 94 e6 b7 bc 37 dd 4e 3b 50 84 2e 3c 85 17 cf 3c
       -0.022448815 0.003156496 0.010651663 0.02527977
000230 39 6a 7b 3d cd 35 16 bd 15 b5 91 bc 8b f1 1d 3c
       0.0613806 -0.036672402 -0.017786542 0.009640108
000240 00 c3 e5 bc bd 9c 2c bd 04 a8 1a 3d f6 94 14 3d
       -0.028047085 -0.042141665 0.03775789 0.036274873
000250 36 f9 62 3a a4 c4 84 3c b0 bb b3 bc 94 5a 3f 3b
       0.0008658351 0.016207047 -0.021940082 0.0029198276
000260 b5 a4 40 3d 96 a9 8e bb 9e 18 b9 bc af a9 65 bc
       0.047032077 -0.0043537123 -0.022594746 -0.0140175065
000270 da b8 da 3c 28 e7 13 bb 50 28 b5 3c 0f c3 ad ba
       0.026699472 -0.00225682 0.022113949 -0.0013256985
000280 0f 83 85 3b d0 05 3f 3d a2 d5 a5 3c c4 21 1c bd
       0.0040744613 0.046636403 0.02024347 -0.03811814
000290 de 64 0d 3d 1b f8 42 bd 98 36 eb bc 94 c9 46 bd
       0.034520023 -0.047599893 -0.028712556 -0.048532084
0002a0 93 c5 05 3b f1 2a 3b bd fc 94 3b bd 4f 73 ef 3b
       0.0020411953 -0.04569525 -0.04579638 0.007307447
0002b0 ca 0d 31 bc 0b 8b 2d 3c 82 42 00 bd c6 e8 2f bd
       -0.01080651 0.010592232 -0.031313427 -0.0429466
0002c0 b6 cc da bc 10 b2 47 bc 40 ea 4f 3a 81 f2 aa bc
       -0.026708942 -0.0121884495 0.00079313293 -0.020867588
0002d0 1c 9c 15 3d 09 2e d8 3c e1 44 d7 3c e6 5e d5 3c
       0.03652583 0.026389139 0.026277961 0.026046228
0002e0 3b 84 7b bb c1 7a 4a bd 4c f0 94 3d 38 02 25 bd
       -0.0038378376 -0.049433473 0.072723955 -0.04028532
0002f0 92 fc 20 bb 1e 87 98 3c a9 c0 dd 3c c2 da 07 3d
       -0.0024564606 0.018619116 0.027069407 0.033167608
000300 0b 2a c1 3c 62 7f fb 3b c9 34 7b bd b8 d0 b3 39
       0.023579618 0.0076750973 -0.061329637 0.00034297048
000310 d4 8a 25 3d bb 93 8e 3d a7 42 1a 3d 6b 57 83 3b
       0.0404156 0.06961771 0.03766122 0.004008224
000320 73 27 4d bd de 90 de 3c 05 65 1f 3d 77 be 9f 3c
       -0.05008645 0.027168687 0.0389147 0.0195
000330 8f d6 08 bd a0 49 1c bd 69 f0 cf 3c 93 ce 02 3d
       -0.033407744 -0.03815615 0.025383191 0.031935286
000340 d9 61 6b bc ba 9c 0a 3d 7d 7b f1 bc cb 89 65 3c
       -0.01436659 0.033840872 -0.02947783 0.014009903
000350 ac 2a 53 3b 34 ae 6c 3d 02 e0 80 bc 6c 73 5c bc
       0.003222148 0.05778332 -0.015731815 -0.013455253
000360 72 aa 95 bc 19 79 a3 3c 52 fc cb 3c a0 2d 91 3d
       -0.018269751 0.019955205 0.02490059 0.070887804
000370 ba 7b 02 3c bc 6c 5e bc 7d 12 ae bc 6a d1 6b 3b
       0.007964069 -0.013575729 -0.02124905 0.0035982975
000380 d1 44 45 bc 2a 4e 0e 3d 6a 7f f6 3c ad 3e c1 bb
       -0.012040333 0.03474251 0.030090053 -0.005897364
000390 4b 76 97 3c 4f 2e 96 bc d0 e8 eb b7 09 1e 36 3d
       0.018489024 -0.018332629 -2.8122595e-05 0.044462238
0003a0 c3 eb d7 bc 58 35 cc bc 85 e4 93 3c cd 08 c2 3c
       -0.026357537 -0.02492778 0.018053303 0.023685837
0003b0 40 05 2c 3d 0b fa eb 3c b3 ac 12 3d a2 9d b6 bc
       0.041997194 0.028805753 0.03580923 -0.022291962
0003c0 2a fb 68 3b 40 92 de bc bb a8 c5 bb c7 74 42 bc
       0.0035550096 -0.027169347 -0.006032077 -0.011868662
0003d0 f6 47 b7 bc e6 e6 18 bd 32 63 44 bc 54 04 22 bc
       -0.02237318 -0.037329577 -0.011986541 -0.009888727
0003e0 8d fd bf ba 9e 80 cf ba 47 f8 85 bc f7 11 36 bd
       -0.0014647708 -0.0015831178 -0.01635374 -0.044450726
0003f0 48 e1 8e bb 9f 9c 6a 3b 00 37 24 bd 2f d0 84 3c
       -0.0043603517 0.003579892 -0.040091515 0.01621255
