models/best_kg_model.pth (torch, 412136 bytes, 11 tensors)

region_embedding.weight f4 [4, 64]
-0.3911878 -1.7715348 -0.011640122 -2.0112638 0.13824925 -1.000699 1.1350273 1.9467821
-0.4953385 0.26969656 0.5796463 1.1319185 0.04477539 -0.5335238 0.51208925 -0.09439082
-1.5687776 -0.7439584 0.0979385 1.0546438 1.2275488 -0.9519135 0.8190166 -0.4904399
-1.7222174 0.22537264 -1.4014802 -0.6943271 -0.36964342 -0.16084222 -0.4519125 0.41913974
0.46511656 1.1131241 0.37470832 0.17534028 -0.16133073 0.4538929 0.13582924 -1.1458995
0.6297562 0.00043749905 -0.026718361 0.10987866 -0.13878994 1.2636101 1.8380853 -0.6087631
-0.75739557 -1.6971326 0.086895265 -0.5183451 0.630727 -1.8130356 -0.42860535 0.7266087
1.0454109 0.33233067 0.82553095 2.9300308 -0.24179131 0.21466666 -2.6032135 0.4919072
-0.5840145 0.31960133 0.42532986 -0.165202 -0.11360155 0.08587972 -0.19653659 -1.0444518
1.0275793 0.16740617 -0.6917877 -0.2325407 1.477016 -0.7840769 0.10368823 -0.032393545
-0.4057974 -0.4038477 1.3880594 0.20963913 0.18049529 1.852356 -0.103837304 1.067177
0.93155974 -1.6612937 1.0070933 1.4713572 -0.5050728 0.14328112 0.3680288 1.512001
1.3664906 1.2400544 -1.3086984 0.5148325 -0.06138861 1.3050236 -0.90045184 -0.21364848
0.9602526 -0.81206125 -0.20962268 0.44414562 -0.8107921 -0.063897036 0.9829653 -1.2342361
0.20369786 0.9452216 -0.81708455 0.2648203 -1.8265307 0.5224711 0.69904554 -0.69584846
0.1754758 -0.23550527 -0.74014103 -1.2684885 -0.7580435 -0.30779794 0.47113347 -0.4938146
-2.02925 -0.9384842 -0.21072969 0.05288913 0.63106936 0.19865294 0.9858556 0.78665537
-0.10356787 -0.4476783 -0.30485886 0.05414016 1.1324786 0.94737333 2.0227988 -1.3609858
0.5396676 1.468332 -1.3296609 0.37462458 1.7906194 -0.44926023 -0.53084415 0.15371224
0.92783827 0.14705975 0.045728646 -0.29910114 -0.68587685 -0.833679 -0.39126742 0.03401573
0.42460912 -0.32575405 0.1189674 0.16064386 0.48905984 0.910658 0.2852344 -0.3818644
0.38354272 -1.1010274 0.9667709 0.58793676 0.5475393 -0.08799513 0.882972 2.2543528
-0.90392286 0.5660175 0.5371861 2.233336 -0.5192415 -0.45600566 -0.91913617 0.22887696
-0.5360361 -1.5150802 -1.6489459 -0.86283463 0.7954601 -0.03809071 1.0294616 -0.04304559
-1.0876834 0.29451326 -0.24545385 0.41704306 -1.0118235 -0.70179355 0.37507695 1.0422481
0.68288213 -0.07828055 0.6132185 0.4916209 0.19115148 -1.2099446 0.25015125 -0.24026515
-1.0339534 0.08993138 0.3630257 -0.24470171 -0.32174462 -0.13675585 -0.9561825 -1.7348202
1.0593994 -0.8168575 1.0911611 -0.18836825 0.0058733383 -0.06494978 -0.063741565 -0.04116026
-1.8788956 1.4018425 0.9598776 -0.011171703 0.3631205 -0.86771655 -0.9191846 0.38199124
-0.8558925 -0.036223322 -1.1867698 -0.26503944 0.5581491 0.38991693 0.27738023 0.18865028
-0.97030354 -1.1413865 -0.0031262652 1.517141 -0.059035193 0.5760971 1.8289559 0.033830196
-0.18639682 0.42791682 -1.2372612 1.0585661 -0.3228362 0.034694325 -0.7729708 -0.8302169
00000000: c449 c8be a7c1 e2bf 36b6 3ebc 8cb8 00c0
00000010: 3691 0d3e e816 80bf 9348 913f 2830 f93f
00000020: 029d fdbe ab15 8a3e b363 143f b5e2 903f
00000030: 6666 373d 0495 08bf 4818 033f f94f c1bd
00000040: b4cd c8bf 0f74 3ebf fb93 c83d 91fe 863f
00000050: 5220 9d3f 9ab0 73bf 12ab 513f f01a fbbe
00000060: 9f71 dcbf 16c8 663e b463 b3bf 6cbf 31bf
00000070: e741 bdbe d3b3 24be 1361 e7be 7c99 d63e
00000080: c223 ee3e da7a 8e3f c5d9 bf3e 678c 333e
00000090: e233 25be a664 e83e d216 0b3e d6ac 92bf
000000a0: b437 213f 2160 e539 77e0 dabc 1008 e13d
000000b0: f31e 0ebe fabd a13f 6146 eb3f e6d7 1bbf
000000c0: ade4 41bf a43b d9bf 25f6 b13d 44b2 04bf
000000d0: 5377 213f 8d11 e8bf 2972 dbbe 0703 3a3f
000000e0: 06d0 853f 3f27 aa3e ff55 533f a085 3b40
000000f0: 2498 77be 94d1 5b3e 0d9b 26c0 43db fb3e
00000100: f981 15bf c9a2 a33e d6c4 d93e b72a 29be
00000110: eea7 e8bd b5e1 af3d e340 49be 99b0 85bf
00000120: b887 833f 866c 2b3e 0019 31bf 261f 6ebe
00000130: dc0e bd3f 44b9 48bf 7f5a d43d 18af 04bd
00000140: adc4 cfbe 20c5 cebe eeab b13f a4ab 563e
00000150: c2d3 383e 001a ed3f a7a8 d4bd 4299 883f
00000160: b37a 6e3f 46a5 d4bf 6fe8 803f 6f55 bc3f
00000170: 734c 01bf 49b8 123e 456e bc3e 4089 c13f
00000180: 2ae9 ae3f 1aba 9e3f 6e83 a7bf 10cc 033f
00000190: a072 7bbd 030b a73f 0384 66bf abc6 5abe
000001a0: 1dd3 753f 3fe3 4fbf 54a7 56be 0e67 e33e
000001b0: 1290 4fbf 73dc 82bd 9da3 7b3f 73fb 9dbf
000001c0: 2c96 503e 0bfa 713f 742c 51bf 8796 873e
000001d0: c2cb e9bf aac0 053f a6f4 323f 2023 32bf
000001e0: eeaf 333e 4b28 71be e279 3dbf d55d a2bf
000001f0: 240f 42bf b197 9dbe 6838 f13e 44d5 fcbe
00000200: 3bdf 01c0 8040 70bf 86c9 57be 46a2 583d
00000210: c38d 213f ad6b 4b3e 0861 7c3f 3f62 493f
00000220: 641b d4bd 1736 e5be 7616 9cbe 13c2 5d3d
00000230: 0ff5 903f 0f87 723f 8975 0140 c834 aebf
00000240: a827 0a3f 4ef2 bb3f 5432 aabf cbce bf3e
00000250: 0433 e53f 7005 e6be 67e5 07bf be66 1d3e
00000260: cf86 6d3f d596 163e f64d 3b3d c923 99be
00000270: a095 2fbf fd6b 55bf 3454 c8be 1454 0b3d
00000280: 5e66 d93e 3cc9 a6be 2ea5 f33d d37f 243e
00000290: 0d66 fa3e e220 693f 3e0a 923e bb83 c3be
000002a0: b65f c43e 77ee 8cbf 4c7e 773f 0683 163f
000002b0: 892b 0c3f ca36 b4bd 740a 623f 5147 1040
000002c0: 7d67 67bf 86e6 103f 0785 093f faee 0e40
000002d0: 03ed 04bf 9379 e9be 824c 6bbf b95e 6a3e
000002e0: a939 09bf 26ee c1bf a910 d3bf bbe2 5cbf
000002f0: 46a3 4b3f 0105 1cbd 66c5 833f 9350 30bd
00000300: 3639 8bbf 71ca 963e 4158 7bbe ab86 d53e
00000310: 6f83 81bf bea8 33bf 160a c03e 6368 853f
00000320: 5dd1 2e3f 8e51 a0bd e3fb 1c3f bcb5 fb3e
00000330: 37bd 433e 77df 9abf d313 803e 1108 76be
00000340: 9658 84bf f12d b83d 81de b93e 1693 7abe
00000350: b6bb a4be ba09 0cbe 60c8 74bf 970e debf
00000360: 669a 873f 931d 51bf 2bab 8b3f 9be3 40be
00000370: 2275 c03b 6404 85bd f08a 82bd a997 28bd
00000380: a77f f0bf 936f b33f 8aba 753f 8509 37bc
00000390: eeea b93e ac22 5ebf af4f 6bbf 5b94 c33e
000003a0: c51b 5bbf e85e 14bd 13e8 97bf 40b3 87be
000003b0: dce2 0e3f 31a3 c73e c804 8e3e 8a2d 413e
000003c0: d065 78bf f418 92bf 07e2 4cbb ad31 c23f
000003d0: e3ce 71bd 197b 133f 3a1b ea3f 8891 0a3d
000003e0: cfde 3ebe ea17 db3e 935e 9ebf 187f 873f
000003f0: c94a a5be a31b 0e3d 6ae1 45bf 1889 54bf

district_embedding.weight f4 [20, 64]
0.5554596 0.044810954 0.8806781 -0.26821676 -0.32268927 0.93347514 -0.22520675 -2.148192
0.46854848 -0.29205403 1.161719 1.6089337 0.9984857 -1.2526467 0.9637561 -0.5421481
0.0041436288 -1.3594589 -0.1773894 -0.09738798 0.35067374 0.5664609 -0.92147803 -1.2640826
-0.077166505 -1.4498848 -0.83088225 0.69023496 0.06370108 0.14965102 0.46570468 1.062629
0.68688595 0.7056599 0.44732478 -0.7576214 -0.8764183 0.22142945 -0.31542158 -0.1165125
0.8626534 -0.4009568 -0.025767826 0.25859305 -0.10585342 -0.712879 0.6515173 1.1290126
-0.15005796 1.3426869 -0.07151516 1.4276158 0.28912577 0.024710396 0.76866287 0.07542281
-0.40811226 -0.54678243 -0.3529522 -0.17907909 0.0840533 1.4492134 -0.66517854 -1.0092733
-0.16154218 0.7789433 0.257819 0.17284484 0.38847852 0.9788582 -0.75764036 0.2354561
-0.0633577 0.4722453 -0.40200105 -0.87615025 -0.27750057 0.41848412 0.9329869 -0.07161348
0.06406996 -1.1873226 1.0034534 0.5784422 -0.7886661 -0.5420068 1.2376835 -0.12866306
0.76818 0.785788 -0.47756153 0.4544052 0.5878591 0.07004468 0.89032054 -1.5119611
0.9570472 1.4228305 0.07003991 -0.1473922 -0.3234104 -0.61403304 1.0724758 -1.4605113
1.0713437 0.32235998 0.6241642 -0.81426305 -0.83896244 0.0320589 0.09256557 0.41578078
-0.0044587026 -1.2597307 -1.3244396 -0.4155933 1.1794467 0.08505841 0.56067777 0.8906408
-1.2932155 1.0125139 -0.32274058 -0.61220235 -1.5828488 0.07969765 -0.3515828 -2.0281358
0.24491622 0.14762494 0.3267757 1.2030182 -2.7446826 0.10597504 0.7906447 1.1441488
0.1465396 -1.170564 0.1117248 -0.20465331 0.2351032 -1.1202425 0.00011995893 0.41643015
-0.44194207 -0.59292734 -0.28263023 0.64552075 -0.6442756 -0.14378001 -0.014212546 1.5496848
-1.0976093 -0.5376217 0.8086429 0.042482287 -2.1933088 0.88319594 0.7309114 0.6896056
-1.1056446 -0.35005018 -0.14126319 -0.33755875 0.28733158 -0.49101675 -1.001356 0.4453244
0.008802397 0.44107068 -0.02009314 -1.4653769 0.020009063 0.3385384 -0.49214518 -0.18415171
0.29812655 -1.464818 -0.35761547 -0.93900853 -0.5840974 0.74428415 -0.86606723 -0.759592
-0.005423584 -0.18160921 -0.23305355 0.56166446 0.56579095 0.4341508 -2.0141592 0.66953874
-1.4949007 -0.22616808 0.64902115 1.1662464 0.47147998 0.4321377 0.30699876 0.15330587
-0.58502835 -0.0796342 -0.62460464 0.6710582 1.2958854 0.81534576 -0.24692552 0.5166847
0.39948693 1.112032 -0.26380706 0.50135005 -0.057666708 0.8008859 -1.0021741 -0.6558331
0.352337 -1.5776534 -0.12783012 -1.5424544 0.39528352 1.1193924 -1.2913586 0.73110735
-0.4172576 0.31405863 -0.50860727 -0.5047921 0.6892768 0.7926094 -0.6191102 1.8873948
-0.4432272 0.42780417 0.5315377 0.11659372 0.69521236 0.5446874 -0.3189915 0.4307212
0.49222177 0.235769 1.321655 -0.7507888 0.53985536 -0.06960337 0.23670249 -1.0226638
-0.8332471 0.20936245 1.0612025 -0.34525177 -0.10916375 0.33741802 -0.034707975 0.7661838
00000000: 9a32 0e3f b18b 373d 1f74 613f b553 89be
00000010: 8737 a5be 3af8 6e3f 999c 66be fa7b 09c0
00000020: 96e5 ef3e 1b88 95be 35b3 943f 8af1 cd3f
00000030: c29c 7f3f ba56 a0bf b8b8 763f 38ca 0abf
00000040: 47c7 873b c002 aebf 91a5 35be 5973 c7bd
00000050: 828b b33e 9503 113f fce5 6bbf 75cd a1bf
00000060: 7909 9ebd d395 b9bf b3b4 54bf 3db3 303f
00000070: b675 823d 1e3e 193e d870 ee3e 3a04 883f
00000080: c2d7 2f3f 21a6 343f c107 e53e 7af3 41bf
00000090: f35c 60bf 67be 623e f07e a1be 1b9e eebd
000000a0: dad6 5c3f 364a cdbe 0c17 d3bc 4f66 843e
000000b0: aec9 d8bd 3d7f 36bf d6c9 263f 7c83 903f
000000c0: cba8 19be 2add ab3f 8a76 92bd 1dbc b63f
000000d0: 4b08 943e 756d ca3c 17c7 443f 4677 9a3d
000000e0: 17f4 d0be eff9 0bbf 27b6 b4be 8260 37be
000000f0: 2324 ac3d d37f b93f 2449 2abf de2f 81bf
00000100: 506b 25be d468 473f da00 843e 3dfe 303e
00000110: a8e6 c63e 7396 7a3f b8f4 41bf 671b 713e
00000120: afc1 81bd 23ca f13e 15d3 cdbe 624b 60bf
00000130: 8e14 8ebe 8d43 d63e 3bd8 6e3f 17aa 92bd
00000140: 1c37 833d 30fa 97bf 2971 803f ca14 143f
00000150: 06e6 49bf f5c0 0abf 6a6c 9e3f 40c0 03be
00000160: 72a7 443f 6729 493f f282 f4be cca7 e83e
00000170: ef7d 163f 9673 8f3d 0cec 633f f187 c1bf
00000180: 0c01 753f 4f1f b63f 1671 8f3d fbed 16be
00000190: 0c96 a5be 4531 1dbf e346 893f 09f2 babf
000001a0: ca21 893f 5e0c a53e 3ac9 1f3f 8b73 50bf
000001b0: 3ec6 56bf 3150 033d 0493 bd3d 38e1 d43e
000001c0: 4f1a 92bb db3e a1bf 3d87 a9bf a5c8 d4be
000001d0: 1cf8 963f 1b33 ae3d 9488 0f3f 0901 643f
000001e0: 1688 a5bf 0e9a 813f 413e a5be 4bb9 1cbf
000001f0: ca9a cabf 8638 a33d a902 b4be facc 01c0
00000200: 51cb 7a3e fe2a 173e 254f a73e 80fc 993f
00000210: e1a8 2fc0 7109 d93d b167 4a3f 7873 923f
00000220: 7a0e 163e 0bd5 95bf f9cf e43d a390 51be
00000230: e5be 703e 1b64 8fbf 7692 fb38 5536 d53e
00000240: 3b46 e2be 16ca 17bf e9b4 90be d940 253f
00000250: 3fef 24bf 113b 13be bddb 68bc 125c c63f
00000260: 767e 8cbf 93a1 09bf 3903 4f3f e801 2e3d
00000270: 2c5f 0cc0 2119 623f 021d 3b3f fe89 303f
00000280: c385 8dbf c739 b3be 4ca7 10be 80d4 acbe
00000290: 201d 933e 8c66 fbbe 6f2c 80bf 8f01 e43e
000002a0: ee37 103c 04d4 e13e 5e9a a4bc 7891 bbbf
000002b0: 0cea a33c e854 ad3e 74fa fbbe 4492 3cbe
000002c0: 0ba4 983e 287f bbbf 6019 b7be dd62 70bf
000002d0: 6887 15bf 6889 3e3f 95b6 5dbf 9f74 42bf
000002e0: 52b8 b1bb c4f7 39be 97a5 6ebe 3ec9 0f3f
000002f0: add7 103f 0349 de3e fce7 00c0 e466 2b3f
00000300: e858 bfbf 9b98 67be 4026 263f 9047 953f
00000310: d365 f13e 2741 dd3e f12e 9d3e 37fc 1c3e
00000320: 6bc4 15bf 4117 a3bd 17e6 1fbf 78ca 2b3f
00000330: 93df a53f 80ba 503f 0bda 7cbe 7345 043f
00000340: 8d89 cc3e 1157 8e3f b811 87be 7a58 003f
00000350: ed33 6cbd dc06 4d3f 3e47 80bf aee4 27bf
00000360: 8465 b43e 8cf0 c9bf e6e5 02be 256f c5bf
00000370: 9a62 ca3e 4048 8f3f 3d4b a5bf da29 3b3f
00000380: caa2 d5be 4bcc a03e 1634 02bf 0e3a 01bf
00000390: 7274 303f 73e8 4a3f 027e 1ebf 2796 f13f
000003a0: adee e2be 2609 db3e db12 083f b0c8 ee3d
000003b0: 70f9 313f a270 0b3f db52 a3be 7d87 dc3e
000003c0: 7e04 fc3e 6e6d 713e fe2b a93f b233 40bf
000003d0: f633 0a3f 368c 8ebd 2362 723e a6e6 82bf
000003e0: af4f 55bf 1c63 563e 7cd5 873f d7c4 b0be
000003f0: 3f91 dfbd 0ec2 ac3e f329 0ebd 9f24 443f

crop_embedding.weight f4 [12, 64]
-1.4177914 1.6010264 -0.51750946 -0.1499472 1.162679 0.41989684 -0.4521754 0.42993
2.6157103 0.61045873 0.84284294 -1.6966401 -1.4952031 -1.1708698 0.858392 0.71078146
-0.1655796 1.5347745 0.10120861 1.1619902 -0.76109034 0.03552317 -0.21757095 1.5911036
-0.09874495 1.6122015 -1.8713411 0.00054227374 0.48553842 1.7126591 1.0163515 -0.15055189
0.4706887 1.8835053 -1.0154203 0.34721288 0.011730259 -0.21892396 0.691542 1.5186428
-0.07372838 0.41471535 -1.3378121 -0.053473897 -0.5801173 -1.0992054 -0.57522386 0.01850037
0.1100474 -0.61582965 -0.27179137 0.21630158 0.34625715 -1.8145816 -0.116345905 0.85966647
-1.3607873 0.14559194 -0.5797986 0.8656528 -0.37742966 0.606399 -0.3388745 0.50298107
1.0992175 -0.24387124 0.3006071 -0.4677424 -0.8504854 0.26525614 -0.77661437 1.0467211
-0.30931482 -0.21961129 -1.2572458 -0.8442894 -0.19481133 -0.5076606 -0.8855098 0.66357726
1.8234528 -0.62880224 2.35891 0.60364616 1.4262598 0.2980441 -1.5711026 -0.30200154
-0.94147444 0.26170534 -0.5538708 -0.6596843 -0.17085728 0.80604386 -1.0688002 -0.64831007
-0.65310633 -0.24722628 0.21658254 0.9246933 -0.41641486 0.1338423 1.910775 -0.79547393
0.11049845 -1.9379212 -1.7353535 -0.4544753 0.8573114 0.8468049 0.45531276 -0.5363513
0.23507912 1.2711529 1.0901552 0.36837617 1.2408907 0.25824782 -0.50962484 0.27232212
-0.04543881 0.9492546 1.0247632 -0.20289204 0.1992127 0.7522591 -2.2124367 1.3451778
-1.2401664 1.2944207 0.7133056 -0.786995 0.09802334 0.9404756 2.3229938 0.24048963
-0.81740475 0.25557494 0.38664886 0.2718686 0.5744624 -2.0530863 0.45386258 0.1171127
1.2333174 -0.34939206 -0.1904166 -2.1722367 0.74845386 -1.2348316 0.25006613 -0.43803778
-0.13799341 1.1763101 -1.5265704 -0.44793054 -0.06647095 -0.7280832 1.0645152 0.9459045
0.6647113 0.44205698 0.30490005 0.20450968 0.08733095 1.622178 -1.1683785 3.0290844
-0.92723066 0.6135971 -0.8807613 0.874627 1.2962229 1.0844463 0.6263026 1.9593562
-0.70084953 -0.8504649 0.045827214 -1.0976789 0.8700812 0.32966942 -0.0018935035 1.4378097
0.16316098 2.7721965 1.1995248 0.442251 -0.6188721 1.1311748 -0.24864422 0.33265328
0.74503124 0.11711898 -0.42445216 0.9838394 1.1739663 1.8053071 1.0959705 -0.9331195
0.25643006 0.45826438 1.1464583 1.6759284 -0.26929864 -0.19646968 -1.3722588 0.32631984
0.31702453 -0.36664212 0.48843944 -0.25870708 -0.14124696 -0.3209922 -1.113243 -0.9723252
2.1707022 1.5227002 -0.876763 -0.25945586 -0.90911466 0.97075105 0.22020207 -0.069190286
0.96459705 0.13424288 -0.034802143 -0.8883394 -0.61502606 0.04835603 1.0412345 0.23342752
0.4876535 0.4006583 -0.7420862 0.4298875 1.058522 -1.0621138 -0.10940512 0.31829002
1.6252384 0.515497 -0.18043362 0.5031041 -0.7435037 -1.3256062 1.3550221 -0.1502001
-0.57906014 0.6803006 1.2163287 0.31324705 -0.25018585 1.0650228 0.30090946 1.3792124
00000000: 307a b5bf 6fee cc3f 807b 04bf c28b 19be
00000010: aad2 943f b8fc d63e 8983 e7be c91f dc3e
00000020: cc67 2740 0647 1c3f 8ec4 573f 812b d9bf
00000030: d162 bfbf 10df 95bf 94bf 5b3f c6f5 353f
00000040: b38d 29be 7e73 c43f 7646 cf3d 18bc 943f
00000050: d1d6 42bf be80 113d ebca 5ebe 48a9 cb3f
00000060: cb3a cabd 9e5c ce3f 1b88 efbf 6027 0e3a
00000070: 7e98 f83e 6a38 db3f ce17 823f 462a 1abe
00000080: 1cfe f03e b416 f13f 4bf9 81bf e3c5 b13e
00000090: 4630 403c 9a2d 60be e608 313f e362 c23f
000000a0: e8fe 96bd 9255 d43e 6d3d abbf 7207 5bbd
000000b0: 9182 14bf c3b2 8cbf df41 13bf 178e 973c
000000c0: 8860 e13d 03a7 1dbf 3d28 8bbe 297e 5d3e
000000d0: 9e48 b13e 3644 e8bf c346 eebd 1a13 5c3f
000000e0: 472e aebf 0e16 153e ae6d 14bf 6c9b 5d3f
000000f0: 763e c1be f73c 1b3f f580 adbe 5ec3 003f
00000100: 29b3 8c3f 62b9 79be 2ce9 993e ef7b efbe
00000110: 69b9 59bf a7cf 873e 33d0 46bf f5fa 853f
00000120: 835e 9ebe c8e1 60be 6eed a0bf 5a23 58bf
00000130: 9f7c 47be 0cf6 01bf c5b0 62bf 33e0 293f
00000140: e766 e93f 2ff9 20bf 62f8 1640 8e88 1a3f
00000150: ae8f b63f 3c99 983e e419 c9bf f29f 9abe
00000160: 7804 71bf 3efe 853e 7aca 0dbf 12e1 28bf
00000170: 36f5 2ebe e458 4e3f 72ce 88bf a6f7 25bf
00000180: fa31 27bf e328 7dbe d0c7 5d3e b3b8 6c3f
00000190: 5434 d5be f50d 093e 4694 f43f 2ea4 4bbf
000001a0: 034d e23d cd0d f8bf 1020 debf fdb0 e8be
000001b0: c378 5b3f 35c8 583f c11e e93e 524e 09bf
000001c0: 95b8 703e 23b5 a23f 358a 8b3f cd9b bc3e
000001d0: 82d5 9e3f 0f39 843e c676 02bf ce6d 8b3e
000001e0: 0c1e 3abd 5902 733f 712b 833f eec2 4fbe
000001f0: 6afe 4b3e 0d94 403f 9098 0dc0 c92e ac3f
00000200: c6bd 9ebf 94af a53f 329b 363f 8178 49bf
00000210: 76c0 c83d 02c3 703f eeab 1440 ea42 763e
00000220: 7041 51bf b8da 823e d7f6 c53e 5c32 8b3e
00000230: f80f 133f c465 03c0 ad60 e83e c9d8 ef3d
00000240: 58dd 9d3f 84e3 b2be 92fc 42be ed05 0bc0
00000250: ac9a 3f3f f60e 9ebf ab08 803e 7d46 e0be
00000260: 254e 0dbe 5491 963f a966 c3bf 2757 e5be
00000270: ec21 88bd a963 3abf 0942 883f cc26 723f
00000280: 852a 2a3f 4b55 e23e dc1b 9c3e fc6a 513e
00000290: 92da b23d 87a3 cf3f 6d8d 95bf 85dc 4140
000002a0: fd5e 6dbf b314 1d3f 9379 61bf 8ee7 5f3f
000002b0: a2ea a53f 23cf 8a3f 5e55 203f 2fcc fa3f
000002c0: e06a 33bf 11b8 59bf 51b5 3b3d be80 8cbf
000002d0: a4bd 5e3f 6eca a83e 6f2f f8ba 260a b83f
000002e0: ac13 273e ab6b 3140 078a 993f b96e e23e
000002f0: 676e 1ebf 56ca 903f 979c 7ebe 8851 aa3e
00000300: 5eba 3e3f 13dc ef3d cb51 d9be e6dc 7b3f
00000310: 8744 963f 4e14 e73f c348 8c3f ebe0 6ebf
00000320: cd4a 833e a1a1 ea3e 25bf 923f d284 d63f
00000330: 83e1 89be 592f 49be 2da6 afbf 6513 a73e
00000340: 0a51 a23e 84b8 bbbe bc14 fa3e 4175 84be
00000350: 0ba3 10be 1759 a4be bf7e 8ebf 4eea 78bf
00000360: c9ec 0a40 d7e7 c23f 8a73 60bf 66d7 84be
00000370: bdbb 68bf 2483 783f a77c 613e a3b3 8dbd
00000380: d5ef 763f f776 093e b18c 0ebd 366a 63bf
00000390: 5972 1dbf f910 463d 2c47 853f a007 6f3e
000003a0: b8ad f93e 1623 cd3e 5cf9 3dbf 371a dc3e
000003b0: a67d 873f 58f3 87bf cb0f e0bd e9f6 a23e
000003c0: d007 d03f 9df7 033f 97c3 38be 6ecb 003f
000003d0: 4256 3ebf 77ad a9bf 5d71 ad3f 0ece 19be
000003e0: 493d 14bf 2e28 2e3f a9b0 9b3f eb61 a03e
000003f0: 5c18 80be ab52 883f ce10 9a3e 088a b03f

weather_encoder.weight f4 [64, 2]
-0.20433202 0.29592127 0.14161292 0.07828026 -0.44692394 0.38742605 -0.17724003 -0.17233069
-0.28953886 0.0009298752 0.31649852 -0.10197491 -0.10165777 0.56842405 -0.3570976 -0.4316747
-0.28989792 -0.37706384 0.09107034 0.5467484 0.077993736 0.122555085 0.010956628 0.45989442
-0.3209431 -0.4750132 0.021614702 0.46510202 0.50878525 0.14349298 -0.5449477 0.43178973
-0.40021047 -0.34523585 0.50802577 -0.29188 0.111723125 0.06662152 0.5018966 -0.29834992
-0.4797126 -0.11219716 0.009796872 0.43744013 0.34107208 -0.32793647 0.28117698 0.4376321
-0.3218257 0.5295045 0.008627308 -0.01864714 0.07630994 -0.2244404 0.2417631 -0.48132843
-0.32617733 -0.41062915 -0.20170672 -0.03003464 -0.1556753 0.3081199 0.26342186 -0.02553753
0.35691124 -0.3468763 -0.011986934 0.15758406 -0.0773152 -0.01453906 0.0017377432 0.44567138
0.4088301 -0.3619698 -0.32088375 0.022605566 0.3229029 0.32812497 0.48737335 -0.24705583
0.4181928 0.01652804 -0.037460886 0.004275926 -0.5123182 -0.15955326 0.27181017 0.5059112
0.49299642 0.1766935 0.03199426 0.041162934 -0.5155377 0.2875839 0.21774255 0.077639975
0.037981104 -0.06895889 -0.5007551 -0.36921534 0.35145682 -0.11753801 0.27036142 0.32734764
-0.11343775 0.42980757 -0.03645955 -0.07246358 0.2177559 -0.45161822 0.4666421 -0.069346026
0.060706683 0.2112748 0.5399191 0.16778469 -0.031581283 -0.38873625 0.33945602 0.4782042
0.13530591 -0.47150928 0.38894996 0.19845714 0.14025463 -0.12639835 -0.19265419 -0.34562507
00000000: 6a3c 51be fe82 973e fa02 113e 6751 a03d
00000010: 37d3 e4be b55c c63e 697e 35be 7577 30be
00000020: 703e 94be dec2 733a 180c a23e 39d8 d0bd
00000030: f331 d0bd 3d84 113f 7fd5 b6be 7704 ddbe
00000040: 806d 94be 830e c1be 1683 ba3d b4f7 0b3f
00000050: 2ebb 9f3d 29fe fa3d 6e83 333c 4877 eb3e
00000060: a752 a4be ee34 f3be 5111 b13c da21 ee3e
00000070: c03f 023f d3ef 123e b181 0bbf 8b13 dd3e
00000080: 63e8 ccbe c1c2 b0be fa0d 023f 4c71 95be
00000090: 18cf e43d dd70 883d 4c7c 003f 52c1 98be
000000a0: e49c f5be a0c7 e5bd 0f83 203c 27f8 df3e
000000b0: 00a1 ae3e 4ae7 a7be 6ef6 8f3e 5111 e03e
000000c0: 57c6 a4be 9b8d 073f 8d59 0d3c e3c1 98bc
000000d0: 6348 9c3d b4d3 65be bf90 773e ae70 f6be
000000e0: b700 a7be fc3d d2be 358c 4ebe 350b f6bc
000000f0: 5969 1fbe e4c1 9d3e 3bdf 863e 1534 d1bc
00000100: 12bd b63e c599 b1be d864 44bc b75d 213e
00000110: 6e57 9ebd 3d35 6ebc fcc4 e33a 0a2f e43e
00000120: 2e52 d13e 1b54 b9be e04a a4be 4f2f b93c
00000130: 8753 a53e ffff a73e 0089 f93e 34fc 7cbe
00000140: 5e1d d63e d065 873c 9670 19bd 111d 8c3b
00000150: 4927 03bf ee61 23be b42a 8b3e 6583 013f
00000160: 076a fc3e 24ef 343e 6a0c 033d 779a 283d
00000170: 47fa 03bf 323e 933e e7f7 5e3e b501 9f3d
00000180: 1392 1b3d 523a 8dbd 7c31 00bf cb09 bdbe
00000190: 26f2 b33e c5b7 f0bd d06c 8a3e 1c9a a73e
000001a0: 0d52 e8bd bd0f dc3e 9c56 15bd c967 94bd
000001b0: 67fb 5e3e 813a e7be b7eb ee3e 4a05 8ebd
000001c0: 92a7 783d 6c58 583e 2338 0a3f c0cf 2b3e
000001d0: 605b 01bd 7008 c7be 2ecd ad3e 2ed7 f43e
000001e0: a28d 0a3e aa69 f1be 7324 c73e 5938 4b3e
000001f0: e99e 0f3e 926e 01be 2447 45be c5f5 b0be

weather_encoder.bias f4 [64]
-0.5148312 -0.16580239 0.58170223 0.59416634 -0.6069163 0.12828277 -0.41623473 0.01188585
0.61266965 0.45811117 0.3628123 0.37882924 0.35721606 -0.5571307 0.2464818 0.5971525
-0.38446653 -0.39155293 -0.25800997 -3.8543076e-05 -0.42379895 -0.30054685 0.55025774 0.0061380123
0.43436393 -0.025087276 0.19394934 -0.031686496 0.14724773 0.3515493 0.32923082 0.24467579
-0.4875688 0.3675187 0.106306314 -0.0290439 -0.31126937 0.6100953 -0.5247273 0.20265925
0.4802019 -0.53220206 0.16279942 -0.43472737 0.39458036 -0.04467661 -0.22402786 -0.25396773
-0.44998878 -0.3882718 0.41929212 0.27600753 0.023268232 0.32879955 0.012030328 0.1281141
-0.13074137 -0.23674376 -0.36466938 0.47081882 -0.1674835 0.24169543 0.043925337 0.020284396
00000000: facb 03bf 1ac8 29be 70ea 143f 491b 183f
00000010: de5e 1bbf 8f5c 033e b81c d5be debc 423c
00000020: ebd7 1c3f 8c8d ea3e 89c2 b93e e8f5 c13e
00000030: 06e5 b63e 1ea0 0ebf ba65 7c3e fcde 183f
00000040: ccd8 c4be a079 c8be e219 84be 50a9 21b8
00000050: 2dfc d8be 47e1 99be b1dd 0c3f 6121 c93b
00000060: f364 de3e d583 cdbc a89a 463e b3c9 01bd
00000070: 1cc8 163e 45fe b33e f190 a83e 4a8c 7a3e
00000080: 9ea2 f9be 692b bc3e 20b7 d93d 79ed edbc
00000090: b35e 9fbe 352f 1c3f 8754 06bf e885 4f3e
000000a0: 06dd f53e 653e 08bf e4b4 263e 9694 debe
000000b0: 7006 ca3e d2fe 36bd 8f67 65be 0f08 82be
000000c0: ee64 e6be 90cb c6be 75ad d63e dc50 8d3e
000000d0: 059d be3c 6a58 a83e da1a 453c 5830 033e
000000e0: 11e1 05be f56c 72be f2b5 babe 2a0f f13e
000000f0: cb80 2bbe 027f 773e 0eeb 333d 762b a63c

fusion_layers.0.weight f4 [256, 256]
0.008201286 -0.039053276 -0.016559837 -0.056084663 -0.047087874 0.026371738 0.019899422 0.026975693
0.044739567 0.0077968333 -0.034881618 -0.004678163 -0.033556584 0.0027860287 -0.061057556 0.04374565
-0.0051988084 0.046205036 0.006754749 0.03474196 -0.059193294 -0.011671631 0.06935829 0.05440321
-0.023305852 0.04236578 0.0073560015 -0.06596146 -0.0066761645 0.022632223 0.057661567 0.028094407
0.023004476 0.011941441 0.003970927 0.0074800407 -0.033726096 -0.04456699 0.0066549825 -0.009179219
-0.06673656 0.021222798 -0.022489587 0.0032683364 0.060447354 0.039793994 -0.061665945 -0.03251531
-0.046776168 0.04174655 0.03149657 0.050208475 0.008264441 -0.021058463 -0.028780501 0.0589088
0.06375887 -0.046803813 -0.015547376 -0.014556479 0.03313593 0.050846472 0.060470372 0.012671063
0.021097966 -0.031791154 -0.041086327 -0.059243616 0.03639433 0.032263454 -0.04675239 -0.008624289
0.046643168 -0.08897624 -0.02042377 -0.011193031 -0.05645256 -0.01706574 0.02147345 0.060629874
-0.033974964 -0.042531896 0.032101512 0.016241629 0.039653167 -0.013450369 0.027691131 0.009598181
-0.075067304 -0.021893864 0.060921695 0.043155268 0.029573468 -0.0007455001 0.0016568387 0.059809074
0.00852534 -0.041915674 0.021480737 0.03735075 0.015270835 0.023295533 0.023189077 -0.03563836
0.003592674 0.0030672518 -0.03867264 0.010292818 -0.0005559991 0.032175954 -0.040004272 0.022365827
-0.07329 0.04345949 -0.044331793 -0.013956296 -0.050755765 -0.0048840507 0.04504565 -0.013981741
0.021016093 0.01905362 0.0071863644 -0.059930332 0.022364346 0.03737916 -0.051922485 -0.0042206733
-0.014674271 0.030001955 -0.0061348304 -0.08755101 0.028196435 -0.0066176434 -0.012931928 -0.0649537
-0.044368714 0.10260643 0.007220469 0.023608748 0.045455005 0.01190894 0.09362617 -0.03534957
0.09386782 -0.02147917 -0.017315673 -0.0233956 0.069355614 -0.017804286 0.011853651 -0.03519879
0.042831417 0.044809688 0.03034453 -0.048826333 0.004111202 -0.0062190364 0.07269858 0.027165225
0.049460832 -0.07692458 0.024019448 -0.028276868 0.03723986 0.040907875 -0.06441613 0.085947834
-0.0961662 -0.07329022 0.039744165 -0.044190753 0.06846265 0.063626476 0.093158096 -0.031846475
-0.06322829 -0.038736768 0.015444264 -0.01563786 0.016803961 -0.013438743 0.01600125 0.057076477
0.00062347687 0.09227257 0.068936445 0.07925365 -0.01936242 -0.044273127 0.042977832 -0.023432821
-0.04133037 0.035750628 0.046084885 -0.0021199721 0.06342408 0.041416284 0.06460888 0.050150678
-0.032143906 0.05361778 0.019650862 -0.032991204 0.038911887 -0.028854536 -0.05546557 -0.06020017
-0.03850622 -0.042548347 0.0002887362 -0.006254068 0.06161745 0.051870402 -0.05889606 0.035638794
-0.011030199 0.039092947 -0.009031865 0.04026891 -0.06598829 -0.023995778 0.041804142 -0.02089501
0.011314938 -0.0020311966 -0.049895015 -0.023684341 0.049633324 -0.016744684 0.016360898 0.038948733
0.043369655 -0.010835446 -0.04962814 0.04510171 -0.0636615 0.030019129 -0.03253782 -0.013689554
-0.023898752 0.06400367 -0.060769934 -0.051600017 0.058282282 -0.068681866 0.056997653 0.025847781
0.02001026 -0.005028948 0.05150024 -0.0121923005 -0.015348151 -0.049679805 0.045374557 0.0027057976
00000000: b05e 063c 54f6 1fbd 7fa8 87bc 08b9 65bd
00000010: 37df 40bd 8b09 d83c 1d04 a33c 21fc dc3c
00000020: d640 373d 947c ff3b 07e0 0ebd 474b 99bb
00000030: a172 09bd ce95 363b 7d17 7abd a42e 333d
00000040: c45a aabb 7e41 3d3d f156 dd3b 964d 0e3d
00000050: ab74 72bd 5e3a 3fbc b80b 8e3d e6d5 5e3d
00000060: eaeb bebc bd87 2d3d 9d0a f13b cd16 87bd
00000070: bac3 dabb 3667 b93c 892e 6c3d 3e26 e63c
00000080: e273 bc3c 09a6 433c 8d1e 823b 211b f53b
00000090: 6024 0abd e08b 36bd 0a12 da3b 6f64 16bc
000000a0: 2dad 88bd 6fdb ad3c 153c b8bc 9631 563b
000000b0: a597 773d 07ff 223d 6e95 7cbd c62e 05bd
000000c0: 5e98 3fbd 6efe 2a3d 8c02 013d 67a7 4d3d
000000d0: 9467 073c cc82 acbc 16c5 ebbc 5b4a 713d
000000e0: 0394 823d 5bb5 3fbd 6cba 7ebc 4c7e 6ebc
000000f0: 8ab9 073d 6444 503d c8af 773d 4a9a 4f3c
00000100: a4d5 ac3c 7137 02bd 234a 28bd 6fa9 72bd
00000110: 3912 153d af26 043d 6f7f 3fbd e44c 0dbc
00000120: e80c 3f3d 2d39 b6bd c04f a7bc fa62 37bc
00000130: cd3a 67bd 73cd 8bbc 17e9 af3c 0857 783d
00000140: 5529 0bbd ed35 2ebd e07c 033d 2a0d 853c
00000150: 5c6b 223d f05e 5cbc 83d8 e23c b041 1d3c
00000160: e3bc 99bd c35a b3bc 0789 793d 94c3 303d
00000170: 0f44 f23c aa6d 43ba 482a d93a 5cfa 743d
00000180: dead 0b3c c5af 2bbd 5ff8 af3c 1afd 183d
00000190: 8632 7a3c 46d6 be3c 05f7 bd3c 87f9 11bd
000001a0: 1173 6b3b f203 493b 3467 1ebd 35a3 283c
000001b0: 78c0 11ba efca 033d 85db 23bd 8a38 b73c
000001c0: 1119 96bd 9402 323d 4195 35bd f3a8 64bc
000001d0: 47e5 4fbd 630a a0bb ca81 383d ac13 65bc
000001e0: f129 ac3c 5616 9c3c 987b eb3b 8279 75bd
000001f0: 6f35 b73c e41a 193d acac 54bd 934d 8abb
00000200: 5b6c 70bc a9c6 f53c b006 c9bb f24d b3bd
00000210: 36fc e63c d1d8 d8bb 70e0 53bc 7206 85bd
00000220: f8bb 35bd 5223 d23d af99 ec3b 2267 c13c
00000230: 072f 3a3d b71d 433c 14bf bf3d b6ca 10bd
00000240: c63d c03d 16f5 afbc 99d9 8dbc 21a8 bfbc
00000250: 510a 8e3d 4bda 91bc d135 423c 9b2c 10bd
00000260: ff6f 2f3d 5d8a 373d 1795 f83c 1ffe 47bd
00000270: 43b7 863b 0fc9 cbbb fee2 943d 9b89 de3c
00000280: 7197 4a3d a28a 9dbd 6fc4 c43c e4a4 e7bc
00000290: d388 183d 048f 273d 9bec 83bd 6b05 b03d
000002a0: c9f2 c4bd 2f19 96bd c7ca 223d 5d01 35bd
000002b0: 2536 8c3d 994e 823d acc9 be3d 7371 02bd
000002c0: d57d 81bd 72aa 1ebd f009 7d3c f81a 80bc
000002d0: 76a8 893c 2c2e 5cbc 0e15 833c 06c9 693d
000002e0: d370 233a 67f9 bc3d 8d2e 8d3d bd4f a23d
000002f0: f09d 9ebc bd57 35bd 8609 303d 30f6 bfbc
00000300: 094a 29bd 406f 123d 81c3 3c3d 3bef 0abb
00000310: 7ce4 813d 1fa4 293d a951 843d cc6a 4d3d
00000320: 54a9 03bd 519e 5b3d d8fa a03c c921 07bd
00000330: 1262 1f3d 5960 ecbc de2f 63bd 7494 76bd
00000340: b3b8 1dbd 2d47 2ebd 8461 9739 edee ccbb
00000350: 9462 7c3d 0f76 543d ff3c 71bd fcf9 113d
00000360: 02b8 34bc ed1f 203d 63fa 13bc 03f1 243d
00000370: de24 87bd cb92 c4bc d23a 2b3d 032c abbc
00000380: 4a62 393c d31d 05bb b75e 4cbd aa05 c2bc
00000390: 504c 4b3d 262c 89bc 4a07 863c b588 1f3d
000003a0: 61a4 313d 2887 31bc e046 4bbd 92bc 383d
000003b0: f660 82bd adea f53c 6146 05bd 274a 60bc
000003c0: 51c7 c3bc 5b14 833d e5e9 78bd 8a5a 53bd
000003d0: 67b9 6e3d 14a9 8cbd 5f76 693d babe d33c
000003e0: 8fec a33c e0c9 a4bb eaf1 523d 37c2 47bc
000003f0: d076 7bbc 0d7d 4bbd acda 393d c053 313b

fusion_layers.0.bias f4 [256]
0.037301585 -0.064087205 0.012475954 0.0016506696 0.001122213 0.044337418 0.05931723 -0.03765715
-0.016797613 -0.043491807 0.033724952 -0.081001475 -0.027918482 0.0014068801 -0.010335686 -0.07270079
-0.029888911 -0.02866742 -0.07290708 -0.010911392 -0.026998017 -0.0118006 0.01577143 0.01534961
-0.01635731 -0.021183128 -0.07375142 -0.017299416 0.019668207 -0.017795268 -0.0077896486 0.07461295
-0.08171989 -0.062798224 -0.039200857 -0.06125064 0.046465248 0.03855314 -0.045146044 -0.07448836
0.012906832 0.065625064 -0.07453331 -0.020476311 -0.029331367 -0.007309778 -0.010984789 0.017945172
0.029357009 -0.025837407 -0.05656852 0.06445306 0.002000779 -0.048964296 0.019227382 0.011366185
-0.040539507 0.03413772 -0.09609004 -0.019666756 0.014729705 -0.031399418 0.03062407 -0.034155127
-0.061915666 0.004431245 -0.032254666 -0.059704386 0.015534054 -0.009722489 -0.06510497 -0.088651344
-0.06097071 -0.05604904 -0.048670452 -0.028070617 0.04081402 -0.03985816 0.018627517 0.0005511384
-0.0107984515 0.028977815 -0.0312637 0.013707354 -0.027075127 0.012407908 0.041805428 -0.07269028
-0.013322474 0.020528981 -0.036449034 0.015079812 -0.016603645 0.015348224 -0.04317814 0.0328939
-0.054581426 0.03581253 -0.06429821 -0.06345746 0.029766783 -0.038475517 -0.03427655 0.010476446
0.026526805 -0.028776765 0.027337503 -0.04953474 -0.052269656 -0.042238753 0.01596032 -0.04461928
-0.055794034 0.014155356 -0.08487879 0.025599405 -0.025141343 -0.028727569 -0.120967805 0.020466002
-0.080743834 0.009466107 -0.026322583 -0.03221128 -0.0090839965 -0.005693369 0.0254167 -0.034632917
0.008165299 0.0032795968 0.015499849 0.029319225 -0.026412746 -0.025892539 -0.04661752 -0.013401328
-0.013865221 -0.077815205 0.034309115 -0.06972316 -0.024543488 -0.075192615 -0.009742989 -0.041196734
0.040120065 -0.008498534 -0.03628461 -0.06275808 0.028037576 0.008246074 0.033620194 -0.069715284
-0.035730217 -0.078924954 0.020444892 -0.022305885 0.029041862 -0.005123292 -0.04230049 -0.04207951
-0.0020132964 0.005021521 0.06161377 -0.02609872 -0.086388595 0.024505839 0.0016959445 -0.073601075
-0.038908724 0.004033746 -0.04471398 -0.0043986016 -0.003240763 -0.027975857 -0.010817932 -0.055131886
-0.012556183 -0.024689835 -0.026566852 0.02535123 -0.094592564 -0.0496933 0.009224596 -0.028094674
-0.024253339 -0.09187114 -0.057785664 0.040560506 -0.020082474 -0.06525429 0.008059459 0.01618222
0.00036972237 0.016542137 -0.07664452 -0.047938228 0.0042846957 -0.059668787 0.038854264 -0.03944148
0.039617676 -0.037452534 0.052739874 0.0050092633 -0.070055045 -0.033510778 0.033378728 -0.059529614
-0.06938024 -0.058331586 -0.02507511 0.025890496 -0.06780911 0.022374455 -0.07078385 -0.0682541
0.013648961 -0.091304086 0.026363233 -0.011375012 0.011200524 -0.058872454 -0.05417791 0.026114931
0.008632399 0.06290141 0.0025478196 -0.0098192915 0.016223319 -0.038007446 -0.05465547 -0.0027456654
-0.052430924 0.0032285303 0.0051355395 -0.03527783 0.019816646 -0.02241363 -0.07991753 0.034963805
0.009776619 0.008150749 0.052126076 -0.052378215 -0.008862443 -0.014216477 0.00991189 -0.055714797
-0.013948783 -0.0085630445 -0.016360963 0.043332033 0.011914796 -0.05181788 -0.045887712 0.020101128
00000000: 8cc9 183d 2740 83bd f267 4c3c 485b d83a
00000010: 3817 933a 279b 353d a0f6 723d 623e 1abd
00000020: 269b 89bc 7724 32bd 2d23 0a3d 1ae4 a5bd
00000030: 4db5 e4bc 1067 b83a 0257 29bc 27e4 94bd
00000040: 97d9 f4bc f0d7 eabc 4f50 95bd b2c5 32bc
00000050: f22a ddbc 4e57 41bc 1633 813c ee7c 7b3c
00000060: c4ff 85bc 3d88 adbc fc0a 97bd 81b7 8dbc
00000070: 381f a13c 62c7 91bc 4f40 ffbb adce 983d
00000080: c25c a7bd 5b9c 80bd 1491 20bd f3e1 7abd
00000090: 5852 3e3d e6e9 1d3d 0feb 38bd 5a8d 98bd
000000a0: 2d77 533c 6f66 863d eca4 98bd f0bd a7bc
000000b0: 5648 f0bc dd86 efbb 8bf9 33bc c101 933c
000000c0: 1c7e f03c f8a8 d3bc 64b4 67bd f7ff 833d
000000d0: 801f 033b c98e 48bd be82 9d3c 3c39 3a3c
000000e0: c10c 26bd fed3 0b3d dbca c4bd 2d1c a1bc
000000f0: dc54 713c ad9c 00bd 54df fa3c 3fe6 0bbd
00000100: 489b 7dbd fa33 913b 781d 04bd 968c 74bd
00000110: 8b82 7e3c 134b 1fbc c155 85bd d68e b5bd
00000120: 6cbc 79bd ae93 65bd ab5a 47bd 5af4 e5bc
00000130: 9a2c 273d 4f42 23bd bc98 983c 467a 103a
00000140: fdeb 30bc e262 ed3c 5e0e 00bd cf94 603c
00000150: a8cc ddbc 8a4a 4b3c 2b3c 2b3d a4de 94bd
00000160: 8246 5abc 652c a83c 954b 15bd 5111 773c
00000170: 5e04 88bc 1e77 7b3c 90db 30bd c1bb 063d
00000180: c690 5fbd 29b0 123d c8ae 83bd fcf5 81bd
00000190: 78d9 f33c 8198 1dbd 9165 0cbd 66a5 2b3c
000001a0: be4e d93c 40bd ebbc e6f2 df3c f1e4 4abd
000001b0: b518 56bd 8b02 2dbd 38bf 823c b5c2 36bd
000001c0: 4988 64bd deeb 673c eed4 adbd d8b5 d13c
000001d0: 38f5 cdbc 1456 ebbc f8bd f7bd 51a8 a73c
000001e0: 065d a5bd bb17 1b3c 75a2 d7bc faef 03bd
000001f0: 0bd5 14bc 718f babb af36 d03c 3fdb 0dbd
00000200: bfc7 053c 81ee 563b 14f3 7d3c df2e f03c
00000210: 8b5f d8bc 971c d4bc 03f2 3ebd 3e91 5bbc
00000220: f42a 63bc 945d 9fbd b787 0c3d 04cb 8ebd
00000230: 6d0f c9bc 96fe 99bd 0fa1 1fbc e8bd 28bd
00000240: f054 243d 6f3d 0bbc 2c9f 14bd 4f87 80bd
00000250: 0faf e53c 8b1a 073c 54b5 093d e3c6 8ebd
00000260: d959 12bd 68a3 a1bd 0c7c a73c d5ba b6bc
00000270: 33e9 ed3c 4ae1 a7bb 4743 2dbd 905b 2cbd
00000280: 82f1 03bb 928b a43b b85e 7c3d fccc d5bc
00000290: 81ec b0bd 78c0 c83c 744a de3a 29bc 96bd
000002a0: c15e 1fbd 842d 843b 0226 37bd 2522 90bb
000002b0: fb62 54bb a02d e5bc b23d 31bc f9d1 61bd
000002c0: 73b8 4dbc 5642 cabc baa2 d9bc 62ad cf3c
000002d0: bfb9 c1bd 348b 4bbd c322 173c cd26 e6bc
000002e0: f0ae c6bc f026 bcbd a9b0 6cbd c622 263d
000002f0: 0084 a4bc 0ba4 85bd d20b 043c 9390 843c
00000300: 4cd7 c139 6083 873c cdf7 9cbd e05a 44bd
00000310: a266 8c3b 4267 74bd a625 1f3d 648d 21bd
00000320: 2546 223d d467 19bd c405 583d bf24 a43b
00000330: 0579 8fbd 9942 09bd 22b8 083d 53d5 73bd
00000340: 3a17 8ebd 1aed 6ebd 516a cdbc 4e18 d43c
00000350: 81df 8abd a24a b73c 20f7 90bd cec8 8bbd
00000360: e49f 5f3c a3fd babd b5f7 d73c 425e 3abc
00000370: 6782 373c 3e24 71bd a8e9 5dbd fbee d53c
00000380: e86e 0d3c 74d2 803d 52f9 263b 18e1 20bc
00000390: c4e6 843c b2ad 1bbd 6ade 5fbd 9ff0 33bb
000003a0: cfc1 56bd c095 533b 0748 a83b 7c7f 10bd
000003b0: 8556 a23c ca9c b7bc cdab a3bd 3536 0f3d
000003c0: 1d2e 203c b88a 053c 2782 553d 8a8a 56bd
000003d0: c833 11bc 3aec 68bc 7b65 223c 3335 64bd
000003e0: 7089 64bc 034c 0cbc 6d07 86bc ee7c 313d
000003f0: 4736 433c fc3e 54bd c1f4 3bbd 1fab a43c

fusion_layers.3.weight f4 [128, 256]
0.014715118 -0.030336518 0.014404403 -0.06117763 -0.019762577 -0.050084595 0.02942234 -0.004759946
0.020586368 0.0052248496 -0.040360037 -0.05641514 -0.028022101 -0.064562194 -0.027671155 -0.04106224
0.021594632 -0.024172567 -0.0480528 -0.05511334 0.00055365806 -0.004369081 -0.050154638 -0.069081575
-0.009813947 0.0121482005 -0.04957497 -0.0088773575 0.01042541 0.022386694 0.039293807 -0.0074647362
0.049362645 -0.0003497704 -0.05762037 -0.04495898 -0.032480597 -0.019679831 0.022735124 -0.021457862
-0.04006782 -0.00725033 0.041889973 -0.06023969 0.018953037 0.013419248 0.0059038945 0.0046996786
-0.046874337 -0.0139621915 0.028080225 -0.01953081 0.037199404 0.034553025 -0.034223102 -0.05477289
0.03629752 0.0091105085 -0.028602568 -0.0065859663 -0.0026541438 -0.0017062491 -0.036919143 -0.026849339
0.012290677 -0.046224266 -0.032493692 -0.06927208 -0.05489064 0.028274745 -0.042192567 0.0416645
0.008029307 -0.036788877 -0.003648779 -0.053763993 0.006216923 -0.06878476 0.019858645 -0.049673937
0.023607148 -0.040107418 -0.049102165 -0.0034050567 -0.0057722814 0.016423034 -0.026976693 0.0015820438
-0.073329605 0.012858464 -0.0015418318 0.025332782 0.0014391581 0.031464446 -0.0035723257 -0.06515405
0.016498838 0.0037163708 -0.03941933 -0.022442248 -0.024004057 -0.042014785 -0.0033227094 -0.055893123
0.022132155 0.013836679 -0.055293795 -0.01299263 -0.024728034 0.0081056785 -0.05469296 0.030883856
0.028945088 0.043181308 -0.0032841098 0.042054415 0.0061141457 -0.046702236 0.021349888 0.03147392
-0.009426836 0.020359129 -0.04422675 -0.039642856 -0.024473056 0.016823502 -0.014501478 0.008644246
0.02117832 -0.054463055 0.003391713 -0.022485776 0.012297386 -0.006174045 -0.031803597 0.03327604
-0.01918307 -0.043500774 0.0016712288 0.026933046 0.01675412 0.002754476 -0.064062946 -0.024042003
0.053696416 0.0051238663 -0.06397552 0.03982785 -0.06311097 -0.05701815 -0.020375365 -0.0505833
-0.04947979 -0.03529625 0.030346626 -0.038713124 0.040513407 0.044119015 -0.018515443 -0.046722643
-0.060475916 -0.019893827 0.031155342 -0.02679414 0.034408446 0.02083802 -0.05827204 -0.024486702
0.020729462 -0.019435674 -0.033587884 -0.020407397 0.010875205 0.0032601326 0.033123158 0.030450365
0.0031713943 0.031772655 0.008885456 0.02401782 -0.011332182 -0.06159118 -0.035949785 0.012839004
-0.020549094 0.0038506163 -0.052562233 -0.052642725 0.036898606 -0.03753046 0.017740812 -0.022199467
-0.057658087 -0.025687132 -0.01506248 -0.027628722 0.0027673244 -0.03085737 0.03545646 -0.073667675
-0.03227993 -0.059554115 0.035912115 0.025419256 0.0030030208 -0.046741948 -0.03408046 -0.01402791
0.026734037 -0.025080992 -0.016807087 -0.027110204 0.021044286 -0.009926638 -0.008875645 0.05082334
-0.04245969 0.037250347 -0.0070197163 -0.019451374 0.019925969 -0.041412767 -0.022652097 0.033982046
-0.010447688 -0.015295707 0.005273115 -0.0062241596 -0.050843526 0.02133527 0.029928708 0.01964812
-0.03356399 0.0056923465 0.023930926 -0.034951884 -0.018582847 -0.016925123 -0.061316747 -0.033626545
-0.019798914 -0.020005526 -0.015998721 -0.027529623 -0.03505107 -0.047632307 -0.023723336 0.051862672
0.014850926 -0.05126114 0.0016791185 -0.023802243 0.028236067 -0.039919425 0.023240041 0.03939189
00000000: ae17 713c 4a84 f8bc 7200 6c3c 6595 7abd
00000010: 21e5 a1bc 8125 4dbd 1f07 f13c 52f9 9bbb
00000020: bea4 a83c 3735 ab3b 9150 25bd 9013 67bd
00000030: 9b8e e5bc 2f39 84bd 9eae e2bc e130 28bd
00000040: 3ae7 b03c 8c05 c6bc 03d3 44bd 87be 61bd
00000050: 5d23 113a 822a 8fbb f36e 4dbd a47a 8dbd
00000060: adca 20bc 3f09 473c 200f 4bbd 5672 11bc
00000070: 57cf 2a3c 4d64 b73c 8bf2 203d bf9a f4bb
00000080: 7c30 4a3d 6361 b7b9 5603 6cbd e826 38bd
00000090: 600a 05bd 9937 a1bc 033f ba3c 66c8 afbc
000000a0: 281e 24bd 2d94 edbb d294 2b3d e5bd 76bd
000000b0: 6643 9b3c 68dc 5b3c 7575 c13b c3ff 993b
000000c0: 4eff 3fbd adc1 64bc 8008 e63c 14ff 9fbc
000000d0: 675e 183d 7987 0d3d 862d 0cbd 8a59 60bd
000000e0: b5ac 143d 3e44 153c ef4f eabc 17cf d7bb
000000f0: 25f1 2dbb 38a4 dfba 8738 17bd 25f3 dbbc
00000100: d65e 493c a855 3dbd 1b18 05bd 85de 8dbd
00000110: 02d5 60bd 70a0 e73c 1dd2 2cbd 65a8 2a3d
00000120: 5b8d 033c efaf 16bd 5a20 6fbb a237 5cbd
00000130: 54b7 cb3b 06df 8cbd 99ae a23c e676 4bbd
00000140: c763 c13c ad47 24bd 5a1f 49bd 5f27 5fbb
00000150: 6825 bdbb 9989 863c 3afe dcbc 955c cf3a
00000160: d52d 96bd 4fac 523c 4a17 caba b286 cf3c
00000170: 22a2 bc3a dde0 003d ae1d 6abb 7d6f 85bd
00000180: 9228 873c 5b8e 733b 2a76 21bd ced8 b7bc
00000190: 28a4 c4bc b217 2cbd d0c1 59bb 30f0 64bd
000001a0: 7e4e b53c 3db3 623c bf7b 62bd 0adf 54bc
000001b0: 7292 cabc aecd 043c ba05 60bd 2400 fd3c
000001c0: 401e ed3c e2de 303d 383a 57bb 4041 2c3d
000001d0: 2c59 c83b d84a 3fbd f6e5 ae3c ccea 003d
000001e0: 0473 1abc 30c8 a63c 1c27 35bd 8c60 22bd
000001f0: b87b c8bc 71d1 893c 9b97 6dbc 98a0 0d3c
00000200: 287e ad3c a714 5fbd 8047 5e3b 1734 b8bc
00000210: fa7a 493c a54f cabb 7d44 02bd 754c 083d
00000220: d025 9dbc de2d 32bd 220d db3a b1a2 dc3c
00000230: f03f 893c 7084 343b 6f33 83bd bcf3 c4bc
00000240: c6f0 5b3d 1be6 a73b 9905 83bd 8722 233d
00000250: 5340 81bd dd8b 69bd 3dea a6bc 6f30 4fbd
00000260: 52ab 4abd cd92 10bd 7d99 f83c a791 1ebd
00000270: 63f1 253d 24b6 343d b3ad 97bc 3e60 3fbd
00000280: 98b5 77bd 61f8 a2bc 7d39 ff3c 627f dbbc
00000290: dfef 0c3d 7fb4 aa3c aaae 6ebd 5698 c8bc
000002a0: d5d0 a93c 9037 9fbc 7393 09bd 6a2d a7bc
000002b0: ea2d 323c f3a7 553b 26ac 073d 0b73 f93c
000002c0: 2bd7 4f3b 0b24 023d 4e94 113c 05c1 c43c
000002d0: 9eaa 39bc 0847 7cbd 1540 13bd b05a 523c
000002e0: 9356 a8bc 9f5a 7c3b 7f4b 57bd e69f 57bd
000002f0: fe22 173d 8ab9 19bd 2e55 913c a8db b5bc
00000300: e32a 6cbd d26d d2bc 9fc8 76bc a155 e2bc
00000310: 005c 353b 98c8 fcbc cb3a 113d 14df 96bd
00000320: f637 04bd 04ef 73bd 9518 133d 0b3c d03c
00000330: 54ce 443b 7c74 3fbd f497 0bbd 52d5 65bc
00000340: 5701 db3c a776 cdbc 04af 89bc 3816 debc
00000350: 1165 ac3c 56a3 22bc 276b 11bc 222c 503d
00000360: 36ea 2dbd d293 183d a605 e6bb 7d58 9fbc
00000370: c93b a33c 6fa0 29bd e490 b9bc c230 0b3d
00000380: c82c 2bbc d89a 7abc 18ca ac3b 09f4 cbbb
00000390: 4d41 50bd 4ec7 ae3c 0d2d f53c 18f5 a03c
000003a0: 657a 09bd dd86 ba3b ca0a c43c b529 0fbd
000003b0: 0e3b 98bc 8ea6 8abc 4527 7bbd fdbb 09bd
000003c0: 5531 a2bc a1e2 a3bc c00f 83bc ce85 e1bc
000003d0: b691 0fbd 181a 43bd 7157 c2bc f46d 543d
000003e0: 4c51 733c 33f7 51bd de15 dc3a ecfc c2bc
000003f0: 534f e73c 8d82 23bd e661 be3c 6459 213d

fusion_layers.3.bias f4 [128]
-0.0009010219 0.08683718 -0.03539924 -0.06098556 0.18170594 0.2029423 0.23166117 -0.055991534
-0.039355345 -0.010653518 0.07715444 0.11576756 0.35980907 0.37111834 0.3149997 0.0074716206
-0.03703221 -0.028826935 -0.05897968 0.10106839 0.07905628 0.01870678 -0.017537365 0.06961096
-0.012399128 0.2881529 0.29856196 -0.08114097 0.07563845 0.28605622 0.2506033 0.21017082
0.3155314 0.16242836 -0.010312123 0.25240487 0.15339684 0.16532159 -0.059526768 0.21198264
0.17160955 0.05591408 -0.039764807 0.046303 0.110955924 0.19134188 0.16346881 0.18614744
0.3141255 0.07413751 0.16887486 0.039346863 0.19675021 0.28117833 0.2730382 -0.022313088
-0.066908814 -0.049115606 0.046711467 0.21691166 0.20163445 0.27264568 0.19493201 0.007885913
0.33163518 0.20921417 0.29242975 0.38813135 0.020308005 -0.014617322 -0.02467699 0.02948232
-0.0054597594 -0.008790834 -0.077424295 0.122869655 -0.021368684 -0.025431274 0.1125992 -0.027569182
0.09040218 0.147056 0.17827092 0.25383493 0.12510972 0.13846448 0.22085957 -0.047986716
0.21260393 -0.03365918 -0.019389937 0.33548656 0.006502352 -0.010800652 -0.061394848 0.09226504
0.19214939 -0.05511175 0.029809304 0.25187126 0.24737608 0.044533167 0.37517226 0.18326174
-0.05632444 0.07716194 0.06111108 0.024664283 -0.06729769 -0.05601989 0.20542526 0.27835846
0.14063008 0.13101558 0.013300446 0.019291874 -0.0794129 -0.024639107 0.27203807 0.0967762
0.20846254 0.25946486 0.3129247 0.14752923 0.0477737 0.02373541 0.05046395 -0.009761221
00000000: 8e32 6cba b1d7 b13d cbfe 10bd ffcb 79bd
00000010: 1f11 3a3e 1bd0 4f3e 9638 6d3e 6157 65bd
00000020: 1233 21bd 188c 2ebc 2603 9e3d 8b17 ed3d
00000030: e538 b83e 3903 be3e a447 a13e 7fd4 f43b
00000040: 16af 17bd 7726 ecbc ad94 71bd f2fc ce3d
00000050: 42e8 a13d f63e 993c 85aa 8fbc 3190 8e3d
00000060: b625 4bbc c788 933e 1ddd 983e 3d2d a6bd
00000070: 55e8 9a3d f675 923e 134f 803e 0537 573e
00000080: 558d a13e 9f53 263e 2ef4 28bc 363b 813e
00000090: 1014 1d3e 104a 293e 57d2 73bd fa11 593e
000000a0: 6aba 2f3e 2a06 653d 6ce0 22bd 37a8 3d3d
000000b0: dc3c e33d 20ef 433e 5e64 273e 6f9d 3e3e
000000c0: 0fd5 a03e 68d5 973d 88ed 2c3e 2d2a 213d
000000d0: e378 493e 9bf6 8f3e aacb 8b3e f0c9 b6bc
000000e0: 7d07 89bd 722d 49bd 8654 3f3d 171e 5e3e
000000f0: 4379 4e3e 3798 8b3e 429c 473e eb33 013c
00000100: 16cc a93e 3d3c 563e 5ab9 953e 27b9 c63e
00000110: f95c a63c 7e7d 6fbc 6627 cabc e884 f13c
00000120: c8e7 b2bb 6e07 10bc a190 9ebd 16a3 fb3d
00000130: 610d afbc 3f55 d0bc 699a e63d c4d8 e1bc
00000140: c724 b93d d995 163e a78c 363e a7f6 813e
00000150: c31c 003e a2c9 0d3e 0329 623e b88d 44bd
00000160: d8b4 593e 35de 09bd a5d7 9ebc e5c4 ab3e
00000170: af11 d53b 38f5 30bc 2a79 7bbd 74f5 bc3d
00000180: cfc2 443e dcbc 61bd a432 f43c 45f5 803e
00000190: 2850 7d3e 6968 363d 9416 c03e f7a8 3b3e
000001a0: 75b4 66bd 1407 9e3d 9d4f 7a3d c00c ca3c
000001b0: 5fd3 89bd 1d75 65bd 005b 523e 0085 8e3e
000001c0: 5501 103e f328 063e 1dea 593c fe09 9e3c
000001d0: 3ba3 a2bd f4d7 c9bc 9348 8b3e 9a32 c63d
000001e0: 3477 553e 94d8 843e ab37 a03e e711 173e
000001f0: 5bae 433d c370 c23c 49b3 4e3d 87ed 1fbc
